node {
  name: "global_step/Initializer/zeros"
  op: "Const"
  attr {
    key: "_class"
    value {
      list {
        s: "loc:@global_step"
      }
    }
  }
  attr {
    key: "_output_shapes"
    value {
      list {
        shape {
        }
      }
    }
  }
  attr {
    key: "dtype"
    value {
      type: DT_INT64
    }
  }
  attr {
    key: "value"
    value {
      tensor {
        dtype: DT_INT64
        tensor_shape {
        }
        int64_val: 0
      }
    }
  }
}
node {
  name: "global_step"
  op: "VariableV2"
  attr {
    key: "_class"
    value {
      list {
        s: "loc:@global_step"
      }
    }
  }
  attr {
    key: "_output_shapes"
    value {
      list {
        shape {
        }
      }
    }
  }
  attr {
    key: "container"
    value {
      s: ""
    }
  }
  attr {
    key: "dtype"
    value {
      type: DT_INT64
    }
  }
  attr {
    key: "shape"
    value {
      shape {
      }
    }
  }
  attr {
    key: "shared_name"
    value {
      s: ""
    }
  }
}
node {
  name: "global_step/Assign"
  op: "Assign"
  input: "global_step"
  input: "global_step/Initializer/zeros"
  attr {
    key: "T"
    value {
      type: DT_INT64
    }
  }
  attr {
    key: "_class"
    value {
      list {
        s: "loc:@global_step"
      }
    }
  }
  attr {
    key: "_output_shapes"
    value {
      list {
        shape {
        }
      }
    }
  }
  attr {
    key: "use_locking"
    value {
      b: true
    }
  }
  attr {
    key: "validate_shape"
    value {
      b: true
    }
  }
}
node {
  name: "global_step/read"
  op: "Identity"
  input: "global_step"
  attr {
    key: "T"
    value {
      type: DT_INT64
    }
  }
  attr {
    key: "_class"
    value {
      list {
        s: "loc:@global_step"
      }
    }
  }
  attr {
    key: "_output_shapes"
    value {
      list {
        shape {
        }
      }
    }
  }
}
node {
  name: "Const"
  op: "Const"
  device: "/device:CPU:0"
  attr {
    key: "_output_shapes"
    value {
      list {
        shape {
          dim {
            size: 2803
          }
        }
      }
    }
  }
  attr {
    key: "dtype"
    value {
      type: DT_STRING
    }
  }
  attr {
    key: "value"
    value {
      tensor {
        dtype: DT_STRING
        tensor_shape {
          dim {
            size: 2803
          }
        }
        string_val: "D:\\TensorFlowDev\\PythonWorksp\\TensorFlow\\furniture\\bed\\baby-bed\\baby-bed0.jpg"
        string_val: "D:\\TensorFlowDev\\PythonWorksp\\TensorFlow\\furniture\\bed\\baby-bed\\baby-bed1.jpg"
        string_val: "D:\\TensorFlowDev\\PythonWorksp\\TensorFlow\\furniture\\bed\\baby-bed\\baby-bed10.jpg"
        string_val: "D:\\TensorFlowDev\\PythonWorksp\\TensorFlow\\furniture\\bed\\baby-bed\\baby-bed100.jpg"
        string_val: "D:\\TensorFlowDev\\PythonWorksp\\TensorFlow\\furniture\\bed\\baby-bed\\baby-bed101.jpg"
        string_val: "D:\\TensorFlowDev\\PythonWorksp\\TensorFlow\\furniture\\bed\\baby-bed\\baby-bed102.jpg"
        string_val: "D:\\TensorFlowDev\\PythonWorksp\\TensorFlow\\furniture\\bed\\baby-bed\\baby-bed103.jpg"
        string_val: "D:\\TensorFlowDev\\PythonWorksp\\TensorFlow\\furniture\\bed\\baby-bed\\baby-bed104.jpg"
        string_val: "D:\\TensorFlowDev\\PythonWorksp\\TensorFlow\\furniture\\bed\\baby-bed\\baby-bed105.jpg"
        string_val: "D:\\TensorFlowDev\\PythonWorksp\\TensorFlow\\furniture\\bed\\baby-bed\\baby-bed106.jpg"
        string_val: "D:\\TensorFlowDev\\PythonWorksp\\TensorFlow\\furniture\\bed\\baby-bed\\baby-bed107.jpg"
        string_val: "D:\\TensorFlowDev\\PythonWorksp\\TensorFlow\\furniture\\bed\\baby-bed\\baby-bed108.jpg"
        string_val: "D:\\TensorFlowDev\\PythonWorksp\\TensorFlow\\furniture\\bed\\baby-bed\\baby-bed109.jpg"
        string_val: "D:\\TensorFlowDev\\PythonWorksp\\TensorFlow\\furniture\\bed\\baby-bed\\baby-bed11.jpg"
        string_val: "D:\\TensorFlowDev\\PythonWorksp\\TensorFlow\\furniture\\bed\\baby-bed\\baby-bed110.jpg"
        string_val: "D:\\TensorFlowDev\\PythonWorksp\\TensorFlow\\furniture\\bed\\baby-bed\\baby-bed111.jpg"
        string_val: "D:\\TensorFlowDev\\PythonWorksp\\TensorFlow\\furniture\\bed\\baby-bed\\baby-bed112.jpg"
        string_val: "D:\\TensorFlowDev\\PythonWorksp\\TensorFlow\\furniture\\bed\\baby-bed\\baby-bed113.jpg"
        string_val: "D:\\TensorFlowDev\\PythonWorksp\\TensorFlow\\furniture\\bed\\baby-bed\\baby-bed114.jpg"
        string_val: "D:\\TensorFlowDev\\PythonWorksp\\TensorFlow\\furniture\\bed\\baby-bed\\baby-bed115.jpg"
        string_val: "D:\\TensorFlowDev\\PythonWorksp\\TensorFlow\\furniture\\bed\\baby-bed\\baby-bed116.jpg"
        string_val: "D:\\TensorFlowDev\\PythonWorksp\\TensorFlow\\furniture\\bed\\baby-bed\\baby-bed117.jpg"
        string_val: "D:\\TensorFlowDev\\PythonWorksp\\TensorFlow\\furniture\\bed\\baby-bed\\baby-bed118.jpg"
        string_val: "D:\\TensorFlowDev\\PythonWorksp\\TensorFlow\\furniture\\bed\\baby-bed\\baby-bed119.jpg"
        string_val: "D:\\TensorFlowDev\\PythonWorksp\\TensorFlow\\furniture\\bed\\baby-bed\\baby-bed12.jpg"
        string_val: "D:\\TensorFlowDev\\PythonWorksp\\TensorFlow\\furniture\\bed\\baby-bed\\baby-bed120.jpg"
        string_val: "D:\\TensorFlowDev\\PythonWorksp\\TensorFlow\\furniture\\bed\\baby-bed\\baby-bed121.jpg"
        string_val: "D:\\TensorFlowDev\\PythonWorksp\\TensorFlow\\furniture\\bed\\baby-bed\\baby-bed122.jpg"
        string_val: "D:\\TensorFlowDev\\PythonWorksp\\TensorFlow\\furniture\\bed\\baby-bed\\baby-bed123.jpg"
        string_val: "D:\\TensorFlowDev\\PythonWorksp\\TensorFlow\\furniture\\bed\\baby-bed\\baby-bed124.jpg"
        string_val: "D:\\TensorFlowDev\\PythonWorksp\\TensorFlow\\furniture\\bed\\baby-bed\\baby-bed125.jpg"
        string_val: "D:\\TensorFlowDev\\PythonWorksp\\TensorFlow\\furniture\\bed\\baby-bed\\baby-bed126.jpg"
        string_val: "D:\\TensorFlowDev\\PythonWorksp\\TensorFlow\\furniture\\bed\\baby-bed\\baby-bed127.jpg"
        string_val: "D:\\TensorFlowDev\\PythonWorksp\\TensorFlow\\furniture\\bed\\baby-bed\\baby-bed128.jpg"
        string_val: "D:\\TensorFlowDev\\PythonWorksp\\TensorFlow\\furniture\\bed\\baby-bed\\baby-bed129.jpg"
        string_val: "D:\\TensorFlowDev\\PythonWorksp\\TensorFlow\\furniture\\bed\\baby-bed\\baby-bed13.jpg"
        string_val: "D:\\TensorFlowDev\\PythonWorksp\\TensorFlow\\furniture\\bed\\baby-bed\\baby-bed130.jpg"
        string_val: "D:\\TensorFlowDev\\PythonWorksp\\TensorFlow\\furniture\\bed\\baby-bed\\baby-bed131.jpg"
        string_val: "D:\\TensorFlowDev\\PythonWorksp\\TensorFlow\\furniture\\bed\\baby-bed\\baby-bed132.jpg"
        string_val: "D:\\TensorFlowDev\\PythonWorksp\\TensorFlow\\furniture\\bed\\baby-bed\\baby-bed133.jpg"
        string_val: "D:\\TensorFlowDev\\PythonWorksp\\TensorFlow\\furniture\\bed\\baby-bed\\baby-bed134.jpg"
        string_val: "D:\\TensorFlowDev\\PythonWorksp\\TensorFlow\\furniture\\bed\\baby-bed\\baby-bed135.jpg"
        string_val: "D:\\TensorFlowDev\\PythonWorksp\\TensorFlow\\furniture\\bed\\baby-bed\\baby-bed136.jpg"
        string_val: "D:\\TensorFlowDev\\PythonWorksp\\TensorFlow\\furniture\\bed\\baby-bed\\baby-bed137.jpg"
        string_val: "D:\\TensorFlowDev\\PythonWorksp\\TensorFlow\\furniture\\bed\\baby-bed\\baby-bed138.jpg"
        string_val: "D:\\TensorFlowDev\\PythonWorksp\\TensorFlow\\furniture\\bed\\baby-bed\\baby-bed139.jpg"
        string_val: "D:\\TensorFlowDev\\PythonWorksp\\TensorFlow\\furniture\\bed\\baby-bed\\baby-bed14.jpg"
        string_val: "D:\\TensorFlowDev\\PythonWorksp\\TensorFlow\\furniture\\bed\\baby-bed\\baby-bed140.jpg"
        string_val: "D:\\TensorFlowDev\\PythonWorksp\\TensorFlow\\furniture\\bed\\baby-bed\\baby-bed141.jpg"
        string_val: "D:\\TensorFlowDev\\PythonWorksp\\TensorFlow\\furniture\\bed\\baby-bed\\baby-bed142.jpg"
        string_val: "D:\\TensorFlowDev\\PythonWorksp\\TensorFlow\\furniture\\bed\\baby-bed\\baby-bed143.jpg"
        string_val: "D:\\TensorFlowDev\\PythonWorksp\\TensorFlow\\furniture\\bed\\baby-bed\\baby-bed144.jpg"
        string_val: "D:\\TensorFlowDev\\PythonWorksp\\TensorFlow\\furniture\\bed\\baby-bed\\baby-bed145.jpg"
        string_val: "D:\\TensorFlowDev\\PythonWorksp\\TensorFlow\\furniture\\bed\\baby-bed\\baby-bed146.jpg"
        string_val: "D:\\TensorFlowDev\\PythonWorksp\\TensorFlow\\furniture\\bed\\baby-bed\\baby-bed147.jpg"
        string_val: "D:\\TensorFlowDev\\PythonWorksp\\TensorFlow\\furniture\\bed\\baby-bed\\baby-bed148.jpg"
        string_val: "D:\\TensorFlowDev\\PythonWorksp\\TensorFlow\\furniture\\bed\\baby-bed\\baby-bed149.jpg"
        string_val: "D:\\TensorFlowDev\\PythonWorksp\\TensorFlow\\furniture\\bed\\baby-bed\\baby-bed15.jpg"
        string_val: "D:\\TensorFlowDev\\PythonWorksp\\TensorFlow\\furniture\\bed\\baby-bed\\baby-bed150.jpg"
        string_val: "D:\\TensorFlowDev\\PythonWorksp\\TensorFlow\\furniture\\bed\\baby-bed\\baby-bed151.jpg"
        string_val: "D:\\TensorFlowDev\\PythonWorksp\\TensorFlow\\furniture\\bed\\baby-bed\\baby-bed152.jpg"
        string_val: "D:\\TensorFlowDev\\PythonWorksp\\TensorFlow\\furniture\\bed\\baby-bed\\baby-bed153.jpg"
        string_val: "D:\\TensorFlowDev\\PythonWorksp\\TensorFlow\\furniture\\bed\\baby-bed\\baby-bed154.jpg"
        string_val: "D:\\TensorFlowDev\\PythonWorksp\\TensorFlow\\furniture\\bed\\baby-bed\\baby-bed155.jpg"
        string_val: "D:\\TensorFlowDev\\PythonWorksp\\TensorFlow\\furniture\\bed\\baby-bed\\baby-bed156.jpg"
        string_val: "D:\\TensorFlowDev\\PythonWorksp\\TensorFlow\\furniture\\bed\\baby-bed\\baby-bed157.jpg"
        string_val: "D:\\TensorFlowDev\\PythonWorksp\\TensorFlow\\furniture\\bed\\baby-bed\\baby-bed158.jpg"
        string_val: "D:\\TensorFlowDev\\PythonWorksp\\TensorFlow\\furniture\\bed\\baby-bed\\baby-bed159.jpg"
        string_val: "D:\\TensorFlowDev\\PythonWorksp\\TensorFlow\\furniture\\bed\\baby-bed\\baby-bed16.jpg"
        string_val: "D:\\TensorFlowDev\\PythonWorksp\\TensorFlow\\furniture\\bed\\baby-bed\\baby-bed160.jpg"
        string_val: "D:\\TensorFlowDev\\PythonWorksp\\TensorFlow\\furniture\\bed\\baby-bed\\baby-bed161.jpg"
        string_val: "D:\\TensorFlowDev\\PythonWorksp\\TensorFlow\\furniture\\bed\\baby-bed\\baby-bed162.jpg"
        string_val: "D:\\TensorFlowDev\\PythonWorksp\\TensorFlow\\furniture\\bed\\baby-bed\\baby-bed163.jpg"
        string_val: "D:\\TensorFlowDev\\PythonWorksp\\TensorFlow\\furniture\\bed\\baby-bed\\baby-bed164.jpg"
        string_val: "D:\\TensorFlowDev\\PythonWorksp\\TensorFlow\\furniture\\bed\\baby-bed\\baby-bed165.jpg"
        string_val: "D:\\TensorFlowDev\\PythonWorksp\\TensorFlow\\furniture\\bed\\baby-bed\\baby-bed166.jpg"
        string_val: "D:\\TensorFlowDev\\PythonWorksp\\TensorFlow\\furniture\\bed\\baby-bed\\baby-bed167.jpg"
        string_val: "D:\\TensorFlowDev\\PythonWorksp\\TensorFlow\\furniture\\bed\\baby-bed\\baby-bed168.jpg"
        string_val: "D:\\TensorFlowDev\\PythonWorksp\\TensorFlow\\furniture\\bed\\baby-bed\\baby-bed169.jpg"
        string_val: "D:\\TensorFlowDev\\PythonWorksp\\TensorFlow\\furniture\\bed\\baby-bed\\baby-bed17.jpg"
        string_val: "D:\\TensorFlowDev\\PythonWorksp\\TensorFlow\\furniture\\bed\\baby-bed\\baby-bed170.jpg"
        string_val: "D:\\TensorFlowDev\\PythonWorksp\\TensorFlow\\furniture\\bed\\baby-bed\\baby-bed171.jpg"
        string_val: "D:\\TensorFlowDev\\PythonWorksp\\TensorFlow\\furniture\\bed\\baby-bed\\baby-bed172.jpg"
        string_val: "D:\\TensorFlowDev\\PythonWorksp\\TensorFlow\\furniture\\bed\\baby-bed\\baby-bed173.jpg"
        string_val: "D:\\TensorFlowDev\\PythonWorksp\\TensorFlow\\furniture\\bed\\baby-bed\\baby-bed174.jpg"
        string_val: "D:\\TensorFlowDev\\PythonWorksp\\TensorFlow\\furniture\\bed\\baby-bed\\baby-bed175.jpg"
        string_val: "D:\\TensorFlowDev\\PythonWorksp\\TensorFlow\\furniture\\bed\\baby-bed\\baby-bed176.jpg"
        string_val: "D:\\TensorFlowDev\\PythonWorksp\\TensorFlow\\furniture\\bed\\baby-bed\\baby-bed177.jpg"
        string_val: "D:\\TensorFlowDev\\PythonWorksp\\TensorFlow\\furniture\\bed\\baby-bed\\baby-bed178.jpg"
        string_val: "D:\\TensorFlowDev\\PythonWorksp\\TensorFlow\\furniture\\bed\\baby-bed\\baby-bed179.jpg"
        string_val: "D:\\TensorFlowDev\\PythonWorksp\\TensorFlow\\furniture\\bed\\baby-bed\\baby-bed18.jpg"
        string_val: "D:\\TensorFlowDev\\PythonWorksp\\TensorFlow\\furniture\\bed\\baby-bed\\baby-bed180.jpg"
        string_val: "D:\\TensorFlowDev\\PythonWorksp\\TensorFlow\\furniture\\bed\\baby-bed\\baby-bed181.jpg"
        string_val: "D:\\TensorFlowDev\\PythonWorksp\\TensorFlow\\furniture\\bed\\baby-bed\\baby-bed182.jpg"
        string_val: "D:\\TensorFlowDev\\PythonWorksp\\TensorFlow\\furniture\\bed\\baby-bed\\baby-bed183.jpg"
        string_val: "D:\\TensorFlowDev\\PythonWorksp\\TensorFlow\\furniture\\bed\\baby-bed\\baby-bed184.jpg"
        string_val: "D:\\TensorFlowDev\\PythonWorksp\\TensorFlow\\furniture\\bed\\baby-bed\\baby-bed185.jpg"
        string_val: "D:\\TensorFlowDev\\PythonWorksp\\TensorFlow\\furniture\\bed\\baby-bed\\baby-bed186.jpg"
        string_val: "D:\\TensorFlowDev\\PythonWorksp\\TensorFlow\\furniture\\bed\\baby-bed\\baby-bed187.jpg"
        string_val: "D:\\TensorFlowDev\\PythonWorksp\\TensorFlow\\furniture\\bed\\baby-bed\\baby-bed188.jpg"
        string_val: "D:\\TensorFlowDev\\PythonWorksp\\TensorFlow\\furniture\\bed\\baby-bed\\baby-bed189.jpg"
        string_val: "D:\\TensorFlowDev\\PythonWorksp\\TensorFlow\\furniture\\bed\\baby-bed\\baby-bed19.jpg"
        string_val: "D:\\TensorFlowDev\\PythonWorksp\\TensorFlow\\furniture\\bed\\baby-bed\\baby-bed190.jpg"
        string_val: "D:\\TensorFlowDev\\PythonWorksp\\TensorFlow\\furniture\\bed\\baby-bed\\baby-bed191.jpg"
        string_val: "D:\\TensorFlowDev\\PythonWorksp\\TensorFlow\\furniture\\bed\\baby-bed\\baby-bed192.jpg"
        string_val: "D:\\TensorFlowDev\\PythonWorksp\\TensorFlow\\furniture\\bed\\baby-bed\\baby-bed193.jpg"
        string_val: "D:\\TensorFlowDev\\PythonWorksp\\TensorFlow\\furniture\\bed\\baby-bed\\baby-bed194.jpg"
        string_val: "D:\\TensorFlowDev\\PythonWorksp\\TensorFlow\\furniture\\bed\\baby-bed\\baby-bed195.jpg"
        string_val: "D:\\TensorFlowDev\\PythonWorksp\\TensorFlow\\furniture\\bed\\baby-bed\\baby-bed196.jpg"
        string_val: "D:\\TensorFlowDev\\PythonWorksp\\TensorFlow\\furniture\\bed\\baby-bed\\baby-bed197.jpg"
        string_val: "D:\\TensorFlowDev\\PythonWorksp\\TensorFlow\\furniture\\bed\\baby-bed\\baby-bed198.jpg"
        string_val: "D:\\TensorFlowDev\\PythonWorksp\\TensorFlow\\furniture\\bed\\baby-bed\\baby-bed199.jpg"
        string_val: "D:\\TensorFlowDev\\PythonWorksp\\TensorFlow\\furniture\\bed\\baby-bed\\baby-bed2.jpg"
        string_val: "D:\\TensorFlowDev\\PythonWorksp\\TensorFlow\\furniture\\bed\\baby-bed\\baby-bed20.jpg"
        string_val: "D:\\TensorFlowDev\\PythonWorksp\\TensorFlow\\furniture\\bed\\baby-bed\\baby-bed200.jpg"
        string_val: "D:\\TensorFlowDev\\PythonWorksp\\TensorFlow\\furniture\\bed\\baby-bed\\baby-bed201.jpg"
        string_val: "D:\\TensorFlowDev\\PythonWorksp\\TensorFlow\\furniture\\bed\\baby-bed\\baby-bed202.jpg"
        string_val: "D:\\TensorFlowDev\\PythonWorksp\\TensorFlow\\furniture\\bed\\baby-bed\\baby-bed203.jpg"
        string_val: "D:\\TensorFlowDev\\PythonWorksp\\TensorFlow\\furniture\\bed\\baby-bed\\baby-bed204.jpg"
        string_val: "D:\\TensorFlowDev\\PythonWorksp\\TensorFlow\\furniture\\bed\\baby-bed\\baby-bed205.jpg"
        string_val: "D:\\TensorFlowDev\\PythonWorksp\\TensorFlow\\furniture\\bed\\baby-bed\\baby-bed206.jpg"
        string_val: "D:\\TensorFlowDev\\PythonWorksp\\TensorFlow\\furniture\\bed\\baby-bed\\baby-bed207.jpg"
        string_val: "D:\\TensorFlowDev\\PythonWorksp\\TensorFlow\\furniture\\bed\\baby-bed\\baby-bed208.jpg"
        string_val: "D:\\TensorFlowDev\\PythonWorksp\\TensorFlow\\furniture\\bed\\baby-bed\\baby-bed209.jpg"
        string_val: "D:\\TensorFlowDev\\PythonWorksp\\TensorFlow\\furniture\\bed\\baby-bed\\baby-bed21.jpg"
        string_val: "D:\\TensorFlowDev\\PythonWorksp\\TensorFlow\\furniture\\bed\\baby-bed\\baby-bed210.jpg"
        string_val: "D:\\TensorFlowDev\\PythonWorksp\\TensorFlow\\furniture\\bed\\baby-bed\\baby-bed211.jpg"
        string_val: "D:\\TensorFlowDev\\PythonWorksp\\TensorFlow\\furniture\\bed\\baby-bed\\baby-bed212.jpg"
        string_val: "D:\\TensorFlowDev\\PythonWorksp\\TensorFlow\\furniture\\bed\\baby-bed\\baby-bed213.jpg"
        string_val: "D:\\TensorFlowDev\\PythonWorksp\\TensorFlow\\furniture\\bed\\baby-bed\\baby-bed214.jpg"
        string_val: "D:\\TensorFlowDev\\PythonWorksp\\TensorFlow\\furniture\\bed\\baby-bed\\baby-bed215.jpg"
        string_val: "D:\\TensorFlowDev\\PythonWorksp\\TensorFlow\\furniture\\bed\\baby-bed\\baby-bed216.jpg"
        string_val: "D:\\TensorFlowDev\\PythonWorksp\\TensorFlow\\furniture\\bed\\baby-bed\\baby-bed217.jpg"
        string_val: "D:\\TensorFlowDev\\PythonWorksp\\TensorFlow\\furniture\\bed\\baby-bed\\baby-bed218.jpg"
        string_val: "D:\\TensorFlowDev\\PythonWorksp\\TensorFlow\\furniture\\bed\\baby-bed\\baby-bed219.jpg"
        string_val: "D:\\TensorFlowDev\\PythonWorksp\\TensorFlow\\furniture\\bed\\baby-bed\\baby-bed22.jpg"
        string_val: "D:\\TensorFlowDev\\PythonWorksp\\TensorFlow\\furniture\\bed\\baby-bed\\baby-bed220.jpg"
        string_val: "D:\\TensorFlowDev\\PythonWorksp\\TensorFlow\\furniture\\bed\\baby-bed\\baby-bed221.jpg"
        string_val: "D:\\TensorFlowDev\\PythonWorksp\\TensorFlow\\furniture\\bed\\baby-bed\\baby-bed222.jpg"
        string_val: "D:\\TensorFlowDev\\PythonWorksp\\TensorFlow\\furniture\\bed\\baby-bed\\baby-bed223.jpg"
        string_val: "D:\\TensorFlowDev\\PythonWorksp\\TensorFlow\\furniture\\bed\\baby-bed\\baby-bed224.jpg"
        string_val: "D:\\TensorFlowDev\\PythonWorksp\\TensorFlow\\furniture\\bed\\baby-bed\\baby-bed225.jpg"
        string_val: "D:\\TensorFlowDev\\PythonWorksp\\TensorFlow\\furniture\\bed\\baby-bed\\baby-bed226.jpg"
        string_val: "D:\\TensorFlowDev\\PythonWorksp\\TensorFlow\\furniture\\bed\\baby-bed\\baby-bed227.jpg"
        string_val: "D:\\TensorFlowDev\\PythonWorksp\\TensorFlow\\furniture\\bed\\baby-bed\\baby-bed228.jpg"
        string_val: "D:\\TensorFlowDev\\PythonWorksp\\TensorFlow\\furniture\\bed\\baby-bed\\baby-bed229.jpg"
        string_val: "D:\\TensorFlowDev\\PythonWorksp\\TensorFlow\\furniture\\bed\\baby-bed\\baby-bed23.jpg"
        string_val: "D:\\TensorFlowDev\\PythonWorksp\\TensorFlow\\furniture\\bed\\baby-bed\\baby-bed230.jpg"
        string_val: "D:\\TensorFlowDev\\PythonWorksp\\TensorFlow\\furniture\\bed\\baby-bed\\baby-bed231.jpg"
        string_val: "D:\\TensorFlowDev\\PythonWorksp\\TensorFlow\\furniture\\bed\\baby-bed\\baby-bed232.jpg"
        string_val: "D:\\TensorFlowDev\\PythonWorksp\\TensorFlow\\furniture\\bed\\baby-bed\\baby-bed233.jpg"
        string_val: "D:\\TensorFlowDev\\PythonWorksp\\TensorFlow\\furniture\\bed\\baby-bed\\baby-bed234.jpg"
        string_val: "D:\\TensorFlowDev\\PythonWorksp\\TensorFlow\\furniture\\bed\\baby-bed\\baby-bed235.jpg"
        string_val: "D:\\TensorFlowDev\\PythonWorksp\\TensorFlow\\furniture\\bed\\baby-bed\\baby-bed236.jpg"
        string_val: "D:\\TensorFlowDev\\PythonWorksp\\TensorFlow\\furniture\\bed\\baby-bed\\baby-bed237.jpg"
        string_val: "D:\\TensorFlowDev\\PythonWorksp\\TensorFlow\\furniture\\bed\\baby-bed\\baby-bed238.jpg"
        string_val: "D:\\TensorFlowDev\\PythonWorksp\\TensorFlow\\furniture\\bed\\baby-bed\\baby-bed239.jpg"
        string_val: "D:\\TensorFlowDev\\PythonWorksp\\TensorFlow\\furniture\\bed\\baby-bed\\baby-bed24.jpg"
        string_val: "D:\\TensorFlowDev\\PythonWorksp\\TensorFlow\\furniture\\bed\\baby-bed\\baby-bed240.jpg"
        string_val: "D:\\TensorFlowDev\\PythonWorksp\\TensorFlow\\furniture\\bed\\baby-bed\\baby-bed241.jpg"
        string_val: "D:\\TensorFlowDev\\PythonWorksp\\TensorFlow\\furniture\\bed\\baby-bed\\baby-bed242.jpg"
        string_val: "D:\\TensorFlowDev\\PythonWorksp\\TensorFlow\\furniture\\bed\\baby-bed\\baby-bed243.jpg"
        string_val: "D:\\TensorFlowDev\\PythonWorksp\\TensorFlow\\furniture\\bed\\baby-bed\\baby-bed244.jpg"
        string_val: "D:\\TensorFlowDev\\PythonWorksp\\TensorFlow\\furniture\\bed\\baby-bed\\baby-bed245.jpg"
        string_val: "D:\\TensorFlowDev\\PythonWorksp\\TensorFlow\\furniture\\bed\\baby-bed\\baby-bed246.jpg"
        string_val: "D:\\TensorFlowDev\\PythonWorksp\\TensorFlow\\furniture\\bed\\baby-bed\\baby-bed247.jpg"
        string_val: "D:\\TensorFlowDev\\PythonWorksp\\TensorFlow\\furniture\\bed\\baby-bed\\baby-bed248.jpg"
        string_val: "D:\\TensorFlowDev\\PythonWorksp\\TensorFlow\\furniture\\bed\\baby-bed\\baby-bed249.jpg"
        string_val: "D:\\TensorFlowDev\\PythonWorksp\\TensorFlow\\furniture\\bed\\baby-bed\\baby-bed25.jpg"
        string_val: "D:\\TensorFlowDev\\PythonWorksp\\TensorFlow\\furniture\\bed\\baby-bed\\baby-bed250.jpg"
        string_val: "D:\\TensorFlowDev\\PythonWorksp\\TensorFlow\\furniture\\bed\\baby-bed\\baby-bed251.jpg"
        string_val: "D:\\TensorFlowDev\\PythonWorksp\\TensorFlow\\furniture\\bed\\baby-bed\\baby-bed252.jpg"
        string_val: "D:\\TensorFlowDev\\PythonWorksp\\TensorFlow\\furniture\\bed\\baby-bed\\baby-bed253.jpg"
        string_val: "D:\\TensorFlowDev\\PythonWorksp\\TensorFlow\\furniture\\bed\\baby-bed\\baby-bed254.jpg"
        string_val: "D:\\TensorFlowDev\\PythonWorksp\\TensorFlow\\furniture\\bed\\baby-bed\\baby-bed255.jpg"
        string_val: "D:\\TensorFlowDev\\PythonWorksp\\TensorFlow\\furniture\\bed\\baby-bed\\baby-bed256.jpg"
        string_val: "D:\\TensorFlowDev\\PythonWorksp\\TensorFlow\\furniture\\bed\\baby-bed\\baby-bed257.jpg"
        string_val: "D:\\TensorFlowDev\\PythonWorksp\\TensorFlow\\furniture\\bed\\baby-bed\\baby-bed258.jpg"
        string_val: "D:\\TensorFlowDev\\PythonWorksp\\TensorFlow\\furniture\\bed\\baby-bed\\baby-bed259.jpg"
        string_val: "D:\\TensorFlowDev\\PythonWorksp\\TensorFlow\\furniture\\bed\\baby-bed\\baby-bed26.jpg"
        string_val: "D:\\TensorFlowDev\\PythonWorksp\\TensorFlow\\furniture\\bed\\baby-bed\\baby-bed260.jpg"
        string_val: "D:\\TensorFlowDev\\PythonWorksp\\TensorFlow\\furniture\\bed\\baby-bed\\baby-bed261.jpg"
        string_val: "D:\\TensorFlowDev\\PythonWorksp\\TensorFlow\\furniture\\bed\\baby-bed\\baby-bed262.jpg"
        string_val: "D:\\TensorFlowDev\\PythonWorksp\\TensorFlow\\furniture\\bed\\baby-bed\\baby-bed263.jpg"
        string_val: "D:\\TensorFlowDev\\PythonWorksp\\TensorFlow\\furniture\\bed\\baby-bed\\baby-bed264.jpg"
        string_val: "D:\\TensorFlowDev\\PythonWorksp\\TensorFlow\\furniture\\bed\\baby-bed\\baby-bed265.jpg"
        string_val: "D:\\TensorFlowDev\\PythonWorksp\\TensorFlow\\furniture\\bed\\baby-bed\\baby-bed266.jpg"
        string_val: "D:\\TensorFlowDev\\PythonWorksp\\TensorFlow\\furniture\\bed\\baby-bed\\baby-bed267.jpg"
        string_val: "D:\\TensorFlowDev\\PythonWorksp\\TensorFlow\\furniture\\bed\\baby-bed\\baby-bed268.jpg"
        string_val: "D:\\TensorFlowDev\\PythonWorksp\\TensorFlow\\furniture\\bed\\baby-bed\\baby-bed269.jpg"
        string_val: "D:\\TensorFlowDev\\PythonWorksp\\TensorFlow\\furniture\\bed\\baby-bed\\baby-bed27.jpg"
        string_val: "D:\\TensorFlowDev\\PythonWorksp\\TensorFlow\\furniture\\bed\\baby-bed\\baby-bed270.jpg"
        string_val: "D:\\TensorFlowDev\\PythonWorksp\\TensorFlow\\furniture\\bed\\baby-bed\\baby-bed271.jpg"
        string_val: "D:\\TensorFlowDev\\PythonWorksp\\TensorFlow\\furniture\\bed\\baby-bed\\baby-bed272.jpg"
        string_val: "D:\\TensorFlowDev\\PythonWorksp\\TensorFlow\\furniture\\bed\\baby-bed\\baby-bed273.jpg"
        string_val: "D:\\TensorFlowDev\\PythonWorksp\\TensorFlow\\furniture\\bed\\baby-bed\\baby-bed274.jpg"
        string_val: "D:\\TensorFlowDev\\PythonWorksp\\TensorFlow\\furniture\\bed\\baby-bed\\baby-bed275.jpg"
        string_val: "D:\\TensorFlowDev\\PythonWorksp\\TensorFlow\\furniture\\bed\\baby-bed\\baby-bed276.jpg"
        string_val: "D:\\TensorFlowDev\\PythonWorksp\\TensorFlow\\furniture\\bed\\baby-bed\\baby-bed277.jpg"
        string_val: "D:\\TensorFlowDev\\PythonWorksp\\TensorFlow\\furniture\\bed\\baby-bed\\baby-bed278.jpg"
        string_val: "D:\\TensorFlowDev\\PythonWorksp\\TensorFlow\\furniture\\bed\\baby-bed\\baby-bed279.jpg"
        string_val: "D:\\TensorFlowDev\\PythonWorksp\\TensorFlow\\furniture\\bed\\baby-bed\\baby-bed28.jpg"
        string_val: "D:\\TensorFlowDev\\PythonWorksp\\TensorFlow\\furniture\\bed\\baby-bed\\baby-bed280.jpg"
        string_val: "D:\\TensorFlowDev\\PythonWorksp\\TensorFlow\\furniture\\bed\\baby-bed\\baby-bed281.jpg"
        string_val: "D:\\TensorFlowDev\\PythonWorksp\\TensorFlow\\furniture\\bed\\baby-bed\\baby-bed282.jpg"
        string_val: "D:\\TensorFlowDev\\PythonWorksp\\TensorFlow\\furniture\\bed\\baby-bed\\baby-bed283.jpg"
        string_val: "D:\\TensorFlowDev\\PythonWorksp\\TensorFlow\\furniture\\bed\\baby-bed\\baby-bed284.jpg"
        string_val: "D:\\TensorFlowDev\\PythonWorksp\\TensorFlow\\furniture\\bed\\baby-bed\\baby-bed285.jpg"
        string_val: "D:\\TensorFlowDev\\PythonWorksp\\TensorFlow\\furniture\\bed\\baby-bed\\baby-bed286.jpg"
        string_val: "D:\\TensorFlowDev\\PythonWorksp\\TensorFlow\\furniture\\bed\\baby-bed\\baby-bed287.jpg"
        string_val: "D:\\TensorFlowDev\\PythonWorksp\\TensorFlow\\furniture\\bed\\baby-bed\\baby-bed288.jpg"
        string_val: "D:\\TensorFlowDev\\PythonWorksp\\TensorFlow\\furniture\\bed\\baby-bed\\baby-bed289.jpg"
        string_val: "D:\\TensorFlowDev\\PythonWorksp\\TensorFlow\\furniture\\bed\\baby-bed\\baby-bed29.jpg"
        string_val: "D:\\TensorFlowDev\\PythonWorksp\\TensorFlow\\furniture\\bed\\baby-bed\\baby-bed290.jpg"
        string_val: "D:\\TensorFlowDev\\PythonWorksp\\TensorFlow\\furniture\\bed\\baby-bed\\baby-bed291.jpg"
        string_val: "D:\\TensorFlowDev\\PythonWorksp\\TensorFlow\\furniture\\bed\\baby-bed\\baby-bed292.jpg"
        string_val: "D:\\TensorFlowDev\\PythonWorksp\\TensorFlow\\furniture\\bed\\baby-bed\\baby-bed293.jpg"
        string_val: "D:\\TensorFlowDev\\PythonWorksp\\TensorFlow\\furniture\\bed\\baby-bed\\baby-bed294.jpg"
        string_val: "D:\\TensorFlowDev\\PythonWorksp\\TensorFlow\\furniture\\bed\\baby-bed\\baby-bed295.jpg"
        string_val: "D:\\TensorFlowDev\\PythonWorksp\\TensorFlow\\furniture\\bed\\baby-bed\\baby-bed296.jpg"
        string_val: "D:\\TensorFlowDev\\PythonWorksp\\TensorFlow\\furniture\\bed\\baby-bed\\baby-bed297.jpg"
        string_val: "D:\\TensorFlowDev\\PythonWorksp\\TensorFlow\\furniture\\bed\\baby-bed\\baby-bed298.jpg"
        string_val: "D:\\TensorFlowDev\\PythonWorksp\\TensorFlow\\furniture\\bed\\baby-bed\\baby-bed299.jpg"
        string_val: "D:\\TensorFlowDev\\PythonWorksp\\TensorFlow\\furniture\\bed\\baby-bed\\baby-bed3.jpg"
        string_val: "D:\\TensorFlowDev\\PythonWorksp\\TensorFlow\\furniture\\bed\\baby-bed\\baby-bed30.jpg"
        string_val: "D:\\TensorFlowDev\\PythonWorksp\\TensorFlow\\furniture\\bed\\baby-bed\\baby-bed300.jpg"
        string_val: "D:\\TensorFlowDev\\PythonWorksp\\TensorFlow\\furniture\\bed\\baby-bed\\baby-bed301.jpg"
        string_val: "D:\\TensorFlowDev\\PythonWorksp\\TensorFlow\\furniture\\bed\\baby-bed\\baby-bed302.jpg"
        string_val: "D:\\TensorFlowDev\\PythonWorksp\\TensorFlow\\furniture\\bed\\baby-bed\\baby-bed303.jpg"
        string_val: "D:\\TensorFlowDev\\PythonWorksp\\TensorFlow\\furniture\\bed\\baby-bed\\baby-bed304.jpg"
        string_val: "D:\\TensorFlowDev\\PythonWorksp\\TensorFlow\\furniture\\bed\\baby-bed\\baby-bed305.jpg"
        string_val: "D:\\TensorFlowDev\\PythonWorksp\\TensorFlow\\furniture\\bed\\baby-bed\\baby-bed306.jpg"
        string_val: "D:\\TensorFlowDev\\PythonWorksp\\TensorFlow\\furniture\\bed\\baby-bed\\baby-bed307.jpg"
        string_val: "D:\\TensorFlowDev\\PythonWorksp\\TensorFlow\\furniture\\bed\\baby-bed\\baby-bed308.jpg"
        string_val: "D:\\TensorFlowDev\\PythonWorksp\\TensorFlow\\furniture\\bed\\baby-bed\\baby-bed309.jpg"
        string_val: "D:\\TensorFlowDev\\PythonWorksp\\TensorFlow\\furniture\\bed\\baby-bed\\baby-bed31.jpg"
        string_val: "D:\\TensorFlowDev\\PythonWorksp\\TensorFlow\\furniture\\bed\\baby-bed\\baby-bed310.jpg"
        string_val: "D:\\TensorFlowDev\\PythonWorksp\\TensorFlow\\furniture\\bed\\baby-bed\\baby-bed311.jpg"
        string_val: "D:\\TensorFlowDev\\PythonWorksp\\TensorFlow\\furniture\\bed\\baby-bed\\baby-bed312.jpg"
        string_val: "D:\\TensorFlowDev\\PythonWorksp\\TensorFlow\\furniture\\bed\\baby-bed\\baby-bed313.jpg"
        string_val: "D:\\TensorFlowDev\\PythonWorksp\\TensorFlow\\furniture\\bed\\baby-bed\\baby-bed314.jpg"
        string_val: "D:\\TensorFlowDev\\PythonWorksp\\TensorFlow\\furniture\\bed\\baby-bed\\baby-bed315.jpg"
        string_val: "D:\\TensorFlowDev\\PythonWorksp\\TensorFlow\\furniture\\bed\\baby-bed\\baby-bed316.jpg"
        string_val: "D:\\TensorFlowDev\\PythonWorksp\\TensorFlow\\furniture\\bed\\baby-bed\\baby-bed317.jpg"
        string_val: "D:\\TensorFlowDev\\PythonWorksp\\TensorFlow\\furniture\\bed\\baby-bed\\baby-bed318.jpg"
        string_val: "D:\\TensorFlowDev\\PythonWorksp\\TensorFlow\\furniture\\bed\\baby-bed\\baby-bed319.jpg"
        string_val: "D:\\TensorFlowDev\\PythonWorksp\\TensorFlow\\furniture\\bed\\baby-bed\\baby-bed32.jpg"
        string_val: "D:\\TensorFlowDev\\PythonWorksp\\TensorFlow\\furniture\\bed\\baby-bed\\baby-bed320.jpg"
        string_val: "D:\\TensorFlowDev\\PythonWorksp\\TensorFlow\\furniture\\bed\\baby-bed\\baby-bed321.jpg"
        string_val: "D:\\TensorFlowDev\\PythonWorksp\\TensorFlow\\furniture\\bed\\baby-bed\\baby-bed322.jpg"
        string_val: "D:\\TensorFlowDev\\PythonWorksp\\TensorFlow\\furniture\\bed\\baby-bed\\baby-bed323.jpg"
        string_val: "D:\\TensorFlowDev\\PythonWorksp\\TensorFlow\\furniture\\bed\\baby-bed\\baby-bed324.jpg"
        string_val: "D:\\TensorFlowDev\\PythonWorksp\\TensorFlow\\furniture\\bed\\baby-bed\\baby-bed325.jpg"
        string_val: "D:\\TensorFlowDev\\PythonWorksp\\TensorFlow\\furniture\\bed\\baby-bed\\baby-bed326.jpg"
        string_val: "D:\\TensorFlowDev\\PythonWorksp\\TensorFlow\\furniture\\bed\\baby-bed\\baby-bed327.jpg"
        string_val: "D:\\TensorFlowDev\\PythonWorksp\\TensorFlow\\furniture\\bed\\baby-bed\\baby-bed328.jpg"
        string_val: "D:\\TensorFlowDev\\PythonWorksp\\TensorFlow\\furniture\\bed\\baby-bed\\baby-bed329.jpg"
        string_val: "D:\\TensorFlowDev\\PythonWorksp\\TensorFlow\\furniture\\bed\\baby-bed\\baby-bed33.jpg"
        string_val: "D:\\TensorFlowDev\\PythonWorksp\\TensorFlow\\furniture\\bed\\baby-bed\\baby-bed330.jpg"
        string_val: "D:\\TensorFlowDev\\PythonWorksp\\TensorFlow\\furniture\\bed\\baby-bed\\baby-bed331.jpg"
        string_val: "D:\\TensorFlowDev\\PythonWorksp\\TensorFlow\\furniture\\bed\\baby-bed\\baby-bed332.jpg"
        string_val: "D:\\TensorFlowDev\\PythonWorksp\\TensorFlow\\furniture\\bed\\baby-bed\\baby-bed333.jpg"
        string_val: "D:\\TensorFlowDev\\PythonWorksp\\TensorFlow\\furniture\\bed\\baby-bed\\baby-bed334.jpg"
        string_val: "D:\\TensorFlowDev\\PythonWorksp\\TensorFlow\\furniture\\bed\\baby-bed\\baby-bed335.jpg"
        string_val: "D:\\TensorFlowDev\\PythonWorksp\\TensorFlow\\furniture\\bed\\baby-bed\\baby-bed336.jpg"
        string_val: "D:\\TensorFlowDev\\PythonWorksp\\TensorFlow\\furniture\\bed\\baby-bed\\baby-bed337.jpg"
        string_val: "D:\\TensorFlowDev\\PythonWorksp\\TensorFlow\\furniture\\bed\\baby-bed\\baby-bed338.jpg"
        string_val: "D:\\TensorFlowDev\\PythonWorksp\\TensorFlow\\furniture\\bed\\baby-bed\\baby-bed339.jpg"
        string_val: "D:\\TensorFlowDev\\PythonWorksp\\TensorFlow\\furniture\\bed\\baby-bed\\baby-bed34.jpg"
        string_val: "D:\\TensorFlowDev\\PythonWorksp\\TensorFlow\\furniture\\bed\\baby-bed\\baby-bed340.jpg"
        string_val: "D:\\TensorFlowDev\\PythonWorksp\\TensorFlow\\furniture\\bed\\baby-bed\\baby-bed341.jpg"
        string_val: "D:\\TensorFlowDev\\PythonWorksp\\TensorFlow\\furniture\\bed\\baby-bed\\baby-bed342.jpg"
        string_val: "D:\\TensorFlowDev\\PythonWorksp\\TensorFlow\\furniture\\bed\\baby-bed\\baby-bed343.jpg"
        string_val: "D:\\TensorFlowDev\\PythonWorksp\\TensorFlow\\furniture\\bed\\baby-bed\\baby-bed344.jpg"
        string_val: "D:\\TensorFlowDev\\PythonWorksp\\TensorFlow\\furniture\\bed\\baby-bed\\baby-bed345.jpg"
        string_val: "D:\\TensorFlowDev\\PythonWorksp\\TensorFlow\\furniture\\bed\\baby-bed\\baby-bed346.jpg"
        string_val: "D:\\TensorFlowDev\\PythonWorksp\\TensorFlow\\furniture\\bed\\baby-bed\\baby-bed347.jpg"
        string_val: "D:\\TensorFlowDev\\PythonWorksp\\TensorFlow\\furniture\\bed\\baby-bed\\baby-bed348.jpg"
        string_val: "D:\\TensorFlowDev\\PythonWorksp\\TensorFlow\\furniture\\bed\\baby-bed\\baby-bed349.jpg"
        string_val: "D:\\TensorFlowDev\\PythonWorksp\\TensorFlow\\furniture\\bed\\baby-bed\\baby-bed35.jpg"
        string_val: "D:\\TensorFlowDev\\PythonWorksp\\TensorFlow\\furniture\\bed\\baby-bed\\baby-bed350.jpg"
        string_val: "D:\\TensorFlowDev\\PythonWorksp\\TensorFlow\\furniture\\bed\\baby-bed\\baby-bed351.jpg"
        string_val: "D:\\TensorFlowDev\\PythonWorksp\\TensorFlow\\furniture\\bed\\baby-bed\\baby-bed352.jpg"
        string_val: "D:\\TensorFlowDev\\PythonWorksp\\TensorFlow\\furniture\\bed\\baby-bed\\baby-bed353.jpg"
        string_val: "D:\\TensorFlowDev\\PythonWorksp\\TensorFlow\\furniture\\bed\\baby-bed\\baby-bed354.jpg"
        string_val: "D:\\TensorFlowDev\\PythonWorksp\\TensorFlow\\furniture\\bed\\baby-bed\\baby-bed355.jpg"
        string_val: "D:\\TensorFlowDev\\PythonWorksp\\TensorFlow\\furniture\\bed\\baby-bed\\baby-bed356.jpg"
        string_val: "D:\\TensorFlowDev\\PythonWorksp\\TensorFlow\\furniture\\bed\\baby-bed\\baby-bed357.jpg"
        string_val: "D:\\TensorFlowDev\\PythonWorksp\\TensorFlow\\furniture\\bed\\baby-bed\\baby-bed358.jpg"
        string_val: "D:\\TensorFlowDev\\PythonWorksp\\TensorFlow\\furniture\\bed\\baby-bed\\baby-bed359.jpg"
        string_val: "D:\\TensorFlowDev\\PythonWorksp\\TensorFlow\\furniture\\bed\\baby-bed\\baby-bed36.jpg"
        string_val: "D:\\TensorFlowDev\\PythonWorksp\\TensorFlow\\furniture\\bed\\baby-bed\\baby-bed360.jpg"
        string_val: "D:\\TensorFlowDev\\PythonWorksp\\TensorFlow\\furniture\\bed\\baby-bed\\baby-bed361.jpg"
        string_val: "D:\\TensorFlowDev\\PythonWorksp\\TensorFlow\\furniture\\bed\\baby-bed\\baby-bed362.jpg"
        string_val: "D:\\TensorFlowDev\\PythonWorksp\\TensorFlow\\furniture\\bed\\baby-bed\\baby-bed363.jpg"
        string_val: "D:\\TensorFlowDev\\PythonWorksp\\TensorFlow\\furniture\\bed\\baby-bed\\baby-bed364.jpg"
        string_val: "D:\\TensorFlowDev\\PythonWorksp\\TensorFlow\\furniture\\bed\\baby-bed\\baby-bed365.jpg"
        string_val: "D:\\TensorFlowDev\\PythonWorksp\\TensorFlow\\furniture\\bed\\baby-bed\\baby-bed366.jpg"
        string_val: "D:\\TensorFlowDev\\PythonWorksp\\TensorFlow\\furniture\\bed\\baby-bed\\baby-bed367.jpg"
        string_val: "D:\\TensorFlowDev\\PythonWorksp\\TensorFlow\\furniture\\bed\\baby-bed\\baby-bed368.jpg"
        string_val: "D:\\TensorFlowDev\\PythonWorksp\\TensorFlow\\furniture\\bed\\baby-bed\\baby-bed37.jpg"
        string_val: "D:\\TensorFlowDev\\PythonWorksp\\TensorFlow\\furniture\\bed\\baby-bed\\baby-bed370.jpg"
        string_val: "D:\\TensorFlowDev\\PythonWorksp\\TensorFlow\\furniture\\bed\\baby-bed\\baby-bed371.jpg"
        string_val: "D:\\TensorFlowDev\\PythonWorksp\\TensorFlow\\furniture\\bed\\baby-bed\\baby-bed372.jpg"
        string_val: "D:\\TensorFlowDev\\PythonWorksp\\TensorFlow\\furniture\\bed\\baby-bed\\baby-bed373.jpg"
        string_val: "D:\\TensorFlowDev\\PythonWorksp\\TensorFlow\\furniture\\bed\\baby-bed\\baby-bed374.jpg"
        string_val: "D:\\TensorFlowDev\\PythonWorksp\\TensorFlow\\furniture\\bed\\baby-bed\\baby-bed375.jpg"
        string_val: "D:\\TensorFlowDev\\PythonWorksp\\TensorFlow\\furniture\\bed\\baby-bed\\baby-bed376.jpg"
        string_val: "D:\\TensorFlowDev\\PythonWorksp\\TensorFlow\\furniture\\bed\\baby-bed\\baby-bed377.jpg"
        string_val: "D:\\TensorFlowDev\\PythonWorksp\\TensorFlow\\furniture\\bed\\baby-bed\\baby-bed378.jpg"
        string_val: "D:\\TensorFlowDev\\PythonWorksp\\TensorFlow\\furniture\\bed\\baby-bed\\baby-bed379.jpg"
        string_val: "D:\\TensorFlowDev\\PythonWorksp\\TensorFlow\\furniture\\bed\\baby-bed\\baby-bed38.jpg"
        string_val: "D:\\TensorFlowDev\\PythonWorksp\\TensorFlow\\furniture\\bed\\baby-bed\\baby-bed380.jpg"
        string_val: "D:\\TensorFlowDev\\PythonWorksp\\TensorFlow\\furniture\\bed\\baby-bed\\baby-bed381.jpg"
        string_val: "D:\\TensorFlowDev\\PythonWorksp\\TensorFlow\\furniture\\bed\\baby-bed\\baby-bed382.jpg"
        string_val: "D:\\TensorFlowDev\\PythonWorksp\\TensorFlow\\furniture\\bed\\baby-bed\\baby-bed384.jpg"
        string_val: "D:\\TensorFlowDev\\PythonWorksp\\TensorFlow\\furniture\\bed\\baby-bed\\baby-bed385.jpg"
        string_val: "D:\\TensorFlowDev\\PythonWorksp\\TensorFlow\\furniture\\bed\\baby-bed\\baby-bed386.jpg"
        string_val: "D:\\TensorFlowDev\\PythonWorksp\\TensorFlow\\furniture\\bed\\baby-bed\\baby-bed387.jpg"
        string_val: "D:\\TensorFlowDev\\PythonWorksp\\TensorFlow\\furniture\\bed\\baby-bed\\baby-bed388.jpg"
        string_val: "D:\\TensorFlowDev\\PythonWorksp\\TensorFlow\\furniture\\bed\\baby-bed\\baby-bed389.jpg"
        string_val: "D:\\TensorFlowDev\\PythonWorksp\\TensorFlow\\furniture\\bed\\baby-bed\\baby-bed39.jpg"
        string_val: "D:\\TensorFlowDev\\PythonWorksp\\TensorFlow\\furniture\\bed\\baby-bed\\baby-bed390.jpg"
        string_val: "D:\\TensorFlowDev\\PythonWorksp\\TensorFlow\\furniture\\bed\\baby-bed\\baby-bed391.jpg"
        string_val: "D:\\TensorFlowDev\\PythonWorksp\\TensorFlow\\furniture\\bed\\baby-bed\\baby-bed392.jpg"
        string_val: "D:\\TensorFlowDev\\PythonWorksp\\TensorFlow\\furniture\\bed\\baby-bed\\baby-bed393.jpg"
        string_val: "D:\\TensorFlowDev\\PythonWorksp\\TensorFlow\\furniture\\bed\\baby-bed\\baby-bed394.jpg"
        string_val: "D:\\TensorFlowDev\\PythonWorksp\\TensorFlow\\furniture\\bed\\baby-bed\\baby-bed395.jpg"
        string_val: "D:\\TensorFlowDev\\PythonWorksp\\TensorFlow\\furniture\\bed\\baby-bed\\baby-bed396.jpg"
        string_val: "D:\\TensorFlowDev\\PythonWorksp\\TensorFlow\\furniture\\bed\\baby-bed\\baby-bed397.jpg"
        string_val: "D:\\TensorFlowDev\\PythonWorksp\\TensorFlow\\furniture\\bed\\baby-bed\\baby-bed398.jpg"
        string_val: "D:\\TensorFlowDev\\PythonWorksp\\TensorFlow\\furniture\\bed\\baby-bed\\baby-bed399.jpg"
        string_val: "D:\\TensorFlowDev\\PythonWorksp\\TensorFlow\\furniture\\bed\\baby-bed\\baby-bed4.jpg"
        string_val: "D:\\TensorFlowDev\\PythonWorksp\\TensorFlow\\furniture\\bed\\baby-bed\\baby-bed40.jpg"
        string_val: "D:\\TensorFlowDev\\PythonWorksp\\TensorFlow\\furniture\\bed\\baby-bed\\baby-bed400.jpg"
        string_val: "D:\\TensorFlowDev\\PythonWorksp\\TensorFlow\\furniture\\bed\\baby-bed\\baby-bed401.jpg"
        string_val: "D:\\TensorFlowDev\\PythonWorksp\\TensorFlow\\furniture\\bed\\baby-bed\\baby-bed402.jpg"
        string_val: "D:\\TensorFlowDev\\PythonWorksp\\TensorFlow\\furniture\\bed\\baby-bed\\baby-bed403.jpg"
        string_val: "D:\\TensorFlowDev\\PythonWorksp\\TensorFlow\\furniture\\bed\\baby-bed\\baby-bed404.jpg"
        string_val: "D:\\TensorFlowDev\\PythonWorksp\\TensorFlow\\furniture\\bed\\baby-bed\\baby-bed405.jpg"
        string_val: "D:\\TensorFlowDev\\PythonWorksp\\TensorFlow\\furniture\\bed\\baby-bed\\baby-bed406.jpg"
        string_val: "D:\\TensorFlowDev\\PythonWorksp\\TensorFlow\\furniture\\bed\\baby-bed\\baby-bed407.jpg"
        string_val: "D:\\TensorFlowDev\\PythonWorksp\\TensorFlow\\furniture\\bed\\baby-bed\\baby-bed408.jpg"
        string_val: "D:\\TensorFlowDev\\PythonWorksp\\TensorFlow\\furniture\\bed\\baby-bed\\baby-bed409.jpg"
        string_val: "D:\\TensorFlowDev\\PythonWorksp\\TensorFlow\\furniture\\bed\\baby-bed\\baby-bed41.jpg"
        string_val: "D:\\TensorFlowDev\\PythonWorksp\\TensorFlow\\furniture\\bed\\baby-bed\\baby-bed410.jpg"
        string_val: "D:\\TensorFlowDev\\PythonWorksp\\TensorFlow\\furniture\\bed\\baby-bed\\baby-bed411.jpg"
        string_val: "D:\\TensorFlowDev\\PythonWorksp\\TensorFlow\\furniture\\bed\\baby-bed\\baby-bed412.jpg"
        string_val: "D:\\TensorFlowDev\\PythonWorksp\\TensorFlow\\furniture\\bed\\baby-bed\\baby-bed413.jpg"
        string_val: "D:\\TensorFlowDev\\PythonWorksp\\TensorFlow\\furniture\\bed\\baby-bed\\baby-bed414.jpg"
        string_val: "D:\\TensorFlowDev\\PythonWorksp\\TensorFlow\\furniture\\bed\\baby-bed\\baby-bed415.jpg"
        string_val: "D:\\TensorFlowDev\\PythonWorksp\\TensorFlow\\furniture\\bed\\baby-bed\\baby-bed416.jpg"
        string_val: "D:\\TensorFlowDev\\PythonWorksp\\TensorFlow\\furniture\\bed\\baby-bed\\baby-bed417.jpg"
        string_val: "D:\\TensorFlowDev\\PythonWorksp\\TensorFlow\\furniture\\bed\\baby-bed\\baby-bed418.jpg"
        string_val: "D:\\TensorFlowDev\\PythonWorksp\\TensorFlow\\furniture\\bed\\baby-bed\\baby-bed419.jpg"
        string_val: "D:\\TensorFlowDev\\PythonWorksp\\TensorFlow\\furniture\\bed\\baby-bed\\baby-bed42.jpg"
        string_val: "D:\\TensorFlowDev\\PythonWorksp\\TensorFlow\\furniture\\bed\\baby-bed\\baby-bed420.jpg"
        string_val: "D:\\TensorFlowDev\\PythonWorksp\\TensorFlow\\furniture\\bed\\baby-bed\\baby-bed421.jpg"
        string_val: "D:\\TensorFlowDev\\PythonWorksp\\TensorFlow\\furniture\\bed\\baby-bed\\baby-bed422.jpg"
        string_val: "D:\\TensorFlowDev\\PythonWorksp\\TensorFlow\\furniture\\bed\\baby-bed\\baby-bed423.jpg"
        string_val: "D:\\TensorFlowDev\\PythonWorksp\\TensorFlow\\furniture\\bed\\baby-bed\\baby-bed424.jpg"
        string_val: "D:\\TensorFlowDev\\PythonWorksp\\TensorFlow\\furniture\\bed\\baby-bed\\baby-bed425.jpg"
        string_val: "D:\\TensorFlowDev\\PythonWorksp\\TensorFlow\\furniture\\bed\\baby-bed\\baby-bed426.jpg"
        string_val: "D:\\TensorFlowDev\\PythonWorksp\\TensorFlow\\furniture\\bed\\baby-bed\\baby-bed427.jpg"
        string_val: "D:\\TensorFlowDev\\PythonWorksp\\TensorFlow\\furniture\\bed\\baby-bed\\baby-bed428.jpg"
        string_val: "D:\\TensorFlowDev\\PythonWorksp\\TensorFlow\\furniture\\bed\\baby-bed\\baby-bed429.jpg"
        string_val: "D:\\TensorFlowDev\\PythonWorksp\\TensorFlow\\furniture\\bed\\baby-bed\\baby-bed43.jpg"
        string_val: "D:\\TensorFlowDev\\PythonWorksp\\TensorFlow\\furniture\\bed\\baby-bed\\baby-bed430.jpg"
        string_val: "D:\\TensorFlowDev\\PythonWorksp\\TensorFlow\\furniture\\bed\\baby-bed\\baby-bed431.jpg"
        string_val: "D:\\TensorFlowDev\\PythonWorksp\\TensorFlow\\furniture\\bed\\baby-bed\\baby-bed432.jpg"
        string_val: "D:\\TensorFlowDev\\PythonWorksp\\TensorFlow\\furniture\\bed\\baby-bed\\baby-bed433.jpg"
        string_val: "D:\\TensorFlowDev\\PythonWorksp\\TensorFlow\\furniture\\bed\\baby-bed\\baby-bed434.jpg"
        string_val: "D:\\TensorFlowDev\\PythonWorksp\\TensorFlow\\furniture\\bed\\baby-bed\\baby-bed435.jpg"
        string_val: "D:\\TensorFlowDev\\PythonWorksp\\TensorFlow\\furniture\\bed\\baby-bed\\baby-bed436.jpg"
        string_val: "D:\\TensorFlowDev\\PythonWorksp\\TensorFlow\\furniture\\bed\\baby-bed\\baby-bed437.jpg"
        string_val: "D:\\TensorFlowDev\\PythonWorksp\\TensorFlow\\furniture\\bed\\baby-bed\\baby-bed438.jpg"
        string_val: "D:\\TensorFlowDev\\PythonWorksp\\TensorFlow\\furniture\\bed\\baby-bed\\baby-bed439.jpg"
        string_val: "D:\\TensorFlowDev\\PythonWorksp\\TensorFlow\\furniture\\bed\\baby-bed\\baby-bed44.jpg"
        string_val: "D:\\TensorFlowDev\\PythonWorksp\\TensorFlow\\furniture\\bed\\baby-bed\\baby-bed440.jpg"
        string_val: "D:\\TensorFlowDev\\PythonWorksp\\TensorFlow\\furniture\\bed\\baby-bed\\baby-bed441.jpg"
        string_val: "D:\\TensorFlowDev\\PythonWorksp\\TensorFlow\\furniture\\bed\\baby-bed\\baby-bed442.jpg"
        string_val: "D:\\TensorFlowDev\\PythonWorksp\\TensorFlow\\furniture\\bed\\baby-bed\\baby-bed443.jpg"
        string_val: "D:\\TensorFlowDev\\PythonWorksp\\TensorFlow\\furniture\\bed\\baby-bed\\baby-bed444.jpg"
        string_val: "D:\\TensorFlowDev\\PythonWorksp\\TensorFlow\\furniture\\bed\\baby-bed\\baby-bed445.jpg"
        string_val: "D:\\TensorFlowDev\\PythonWorksp\\TensorFlow\\furniture\\bed\\baby-bed\\baby-bed446.jpg"
        string_val: "D:\\TensorFlowDev\\PythonWorksp\\TensorFlow\\furniture\\bed\\baby-bed\\baby-bed447.jpg"
        string_val: "D:\\TensorFlowDev\\PythonWorksp\\TensorFlow\\furniture\\bed\\baby-bed\\baby-bed448.jpg"
        string_val: "D:\\TensorFlowDev\\PythonWorksp\\TensorFlow\\furniture\\bed\\baby-bed\\baby-bed449.jpg"
        string_val: "D:\\TensorFlowDev\\PythonWorksp\\TensorFlow\\furniture\\bed\\baby-bed\\baby-bed45.jpg"
        string_val: "D:\\TensorFlowDev\\PythonWorksp\\TensorFlow\\furniture\\bed\\baby-bed\\baby-bed450.jpg"
        string_val: "D:\\TensorFlowDev\\PythonWorksp\\TensorFlow\\furniture\\bed\\baby-bed\\baby-bed451.jpg"
        string_val: "D:\\TensorFlowDev\\PythonWorksp\\TensorFlow\\furniture\\bed\\baby-bed\\baby-bed452.jpg"
        string_val: "D:\\TensorFlowDev\\PythonWorksp\\TensorFlow\\furniture\\bed\\baby-bed\\baby-bed46.jpg"
        string_val: "D:\\TensorFlowDev\\PythonWorksp\\TensorFlow\\furniture\\bed\\baby-bed\\baby-bed47.jpg"
        string_val: "D:\\TensorFlowDev\\PythonWorksp\\TensorFlow\\furniture\\bed\\baby-bed\\baby-bed48.jpg"
        string_val: "D:\\TensorFlowDev\\PythonWorksp\\TensorFlow\\furniture\\bed\\baby-bed\\baby-bed49.jpg"
        string_val: "D:\\TensorFlowDev\\PythonWorksp\\TensorFlow\\furniture\\bed\\baby-bed\\baby-bed5.jpg"
        string_val: "D:\\TensorFlowDev\\PythonWorksp\\TensorFlow\\furniture\\bed\\baby-bed\\baby-bed50.jpg"
        string_val: "D:\\TensorFlowDev\\PythonWorksp\\TensorFlow\\furniture\\bed\\baby-bed\\baby-bed51.jpg"
        string_val: "D:\\TensorFlowDev\\PythonWorksp\\TensorFlow\\furniture\\bed\\baby-bed\\baby-bed52.jpg"
        string_val: "D:\\TensorFlowDev\\PythonWorksp\\TensorFlow\\furniture\\bed\\baby-bed\\baby-bed53.jpg"
        string_val: "D:\\TensorFlowDev\\PythonWorksp\\TensorFlow\\furniture\\bed\\baby-bed\\baby-bed54.jpg"
        string_val: "D:\\TensorFlowDev\\PythonWorksp\\TensorFlow\\furniture\\bed\\baby-bed\\baby-bed55.jpg"
        string_val: "D:\\TensorFlowDev\\PythonWorksp\\TensorFlow\\furniture\\bed\\baby-bed\\baby-bed56.jpg"
        string_val: "D:\\TensorFlowDev\\PythonWorksp\\TensorFlow\\furniture\\bed\\baby-bed\\baby-bed57.jpg"
        string_val: "D:\\TensorFlowDev\\PythonWorksp\\TensorFlow\\furniture\\bed\\baby-bed\\baby-bed58.jpg"
        string_val: "D:\\TensorFlowDev\\PythonWorksp\\TensorFlow\\furniture\\bed\\baby-bed\\baby-bed59.jpg"
        string_val: "D:\\TensorFlowDev\\PythonWorksp\\TensorFlow\\furniture\\bed\\baby-bed\\baby-bed6.jpg"
        string_val: "D:\\TensorFlowDev\\PythonWorksp\\TensorFlow\\furniture\\bed\\baby-bed\\baby-bed60.jpg"
        string_val: "D:\\TensorFlowDev\\PythonWorksp\\TensorFlow\\furniture\\bed\\baby-bed\\baby-bed61.jpg"
        string_val: "D:\\TensorFlowDev\\PythonWorksp\\TensorFlow\\furniture\\bed\\baby-bed\\baby-bed62.jpg"
        string_val: "D:\\TensorFlowDev\\PythonWorksp\\TensorFlow\\furniture\\bed\\baby-bed\\baby-bed63.jpg"
        string_val: "D:\\TensorFlowDev\\PythonWorksp\\TensorFlow\\furniture\\bed\\baby-bed\\baby-bed64.jpg"
        string_val: "D:\\TensorFlowDev\\PythonWorksp\\TensorFlow\\furniture\\bed\\baby-bed\\baby-bed65.jpg"
        string_val: "D:\\TensorFlowDev\\PythonWorksp\\TensorFlow\\furniture\\bed\\baby-bed\\baby-bed66.jpg"
        string_val: "D:\\TensorFlowDev\\PythonWorksp\\TensorFlow\\furniture\\bed\\baby-bed\\baby-bed67.jpg"
        string_val: "D:\\TensorFlowDev\\PythonWorksp\\TensorFlow\\furniture\\bed\\baby-bed\\baby-bed68.jpg"
        string_val: "D:\\TensorFlowDev\\PythonWorksp\\TensorFlow\\furniture\\bed\\baby-bed\\baby-bed69.jpg"
        string_val: "D:\\TensorFlowDev\\PythonWorksp\\TensorFlow\\furniture\\bed\\baby-bed\\baby-bed7.jpg"
        string_val: "D:\\TensorFlowDev\\PythonWorksp\\TensorFlow\\furniture\\bed\\baby-bed\\baby-bed70.jpg"
        string_val: "D:\\TensorFlowDev\\PythonWorksp\\TensorFlow\\furniture\\bed\\baby-bed\\baby-bed71.jpg"
        string_val: "D:\\TensorFlowDev\\PythonWorksp\\TensorFlow\\furniture\\bed\\baby-bed\\baby-bed72.jpg"
        string_val: "D:\\TensorFlowDev\\PythonWorksp\\TensorFlow\\furniture\\bed\\baby-bed\\baby-bed73.jpg"
        string_val: "D:\\TensorFlowDev\\PythonWorksp\\TensorFlow\\furniture\\bed\\baby-bed\\baby-bed74.jpg"
        string_val: "D:\\TensorFlowDev\\PythonWorksp\\TensorFlow\\furniture\\bed\\baby-bed\\baby-bed75.jpg"
        string_val: "D:\\TensorFlowDev\\PythonWorksp\\TensorFlow\\furniture\\bed\\baby-bed\\baby-bed76.jpg"
        string_val: "D:\\TensorFlowDev\\PythonWorksp\\TensorFlow\\furniture\\bed\\baby-bed\\baby-bed77.jpg"
        string_val: "D:\\TensorFlowDev\\PythonWorksp\\TensorFlow\\furniture\\bed\\baby-bed\\baby-bed78.jpg"
        string_val: "D:\\TensorFlowDev\\PythonWorksp\\TensorFlow\\furniture\\bed\\baby-bed\\baby-bed79.jpg"
        string_val: "D:\\TensorFlowDev\\PythonWorksp\\TensorFlow\\furniture\\bed\\baby-bed\\baby-bed8.jpg"
        string_val: "D:\\TensorFlowDev\\PythonWorksp\\TensorFlow\\furniture\\bed\\baby-bed\\baby-bed80.jpg"
        string_val: "D:\\TensorFlowDev\\PythonWorksp\\TensorFlow\\furniture\\bed\\baby-bed\\baby-bed81.jpg"
        string_val: "D:\\TensorFlowDev\\PythonWorksp\\TensorFlow\\furniture\\bed\\baby-bed\\baby-bed82.jpg"
        string_val: "D:\\TensorFlowDev\\PythonWorksp\\TensorFlow\\furniture\\bed\\baby-bed\\baby-bed83.jpg"
        string_val: "D:\\TensorFlowDev\\PythonWorksp\\TensorFlow\\furniture\\bed\\baby-bed\\baby-bed84.jpg"
        string_val: "D:\\TensorFlowDev\\PythonWorksp\\TensorFlow\\furniture\\bed\\baby-bed\\baby-bed85.jpg"
        string_val: "D:\\TensorFlowDev\\PythonWorksp\\TensorFlow\\furniture\\bed\\baby-bed\\baby-bed86.jpg"
        string_val: "D:\\TensorFlowDev\\PythonWorksp\\TensorFlow\\furniture\\bed\\baby-bed\\baby-bed87.jpg"
        string_val: "D:\\TensorFlowDev\\PythonWorksp\\TensorFlow\\furniture\\bed\\baby-bed\\baby-bed88.jpg"
        string_val: "D:\\TensorFlowDev\\PythonWorksp\\TensorFlow\\furniture\\bed\\baby-bed\\baby-bed89.jpg"
        string_val: "D:\\TensorFlowDev\\PythonWorksp\\TensorFlow\\furniture\\bed\\baby-bed\\baby-bed9.jpg"
        string_val: "D:\\TensorFlowDev\\PythonWorksp\\TensorFlow\\furniture\\bed\\baby-bed\\baby-bed90.jpg"
        string_val: "D:\\TensorFlowDev\\PythonWorksp\\TensorFlow\\furniture\\bed\\baby-bed\\baby-bed91.jpg"
        string_val: "D:\\TensorFlowDev\\PythonWorksp\\TensorFlow\\furniture\\bed\\baby-bed\\baby-bed92.jpg"
        string_val: "D:\\TensorFlowDev\\PythonWorksp\\TensorFlow\\furniture\\bed\\baby-bed\\baby-bed93.jpg"
        string_val: "D:\\TensorFlowDev\\PythonWorksp\\TensorFlow\\furniture\\bed\\baby-bed\\baby-bed94.jpg"
        string_val: "D:\\TensorFlowDev\\PythonWorksp\\TensorFlow\\furniture\\bed\\baby-bed\\baby-bed95.jpg"
        string_val: "D:\\TensorFlowDev\\PythonWorksp\\TensorFlow\\furniture\\bed\\baby-bed\\baby-bed96.jpg"
        string_val: "D:\\TensorFlowDev\\PythonWorksp\\TensorFlow\\furniture\\bed\\baby-bed\\baby-bed97.jpg"
        string_val: "D:\\TensorFlowDev\\PythonWorksp\\TensorFlow\\furniture\\bed\\baby-bed\\baby-bed98.jpg"
        string_val: "D:\\TensorFlowDev\\PythonWorksp\\TensorFlow\\furniture\\bed\\baby-bed\\baby-bed99.jpg"
        string_val: "D:\\TensorFlowDev\\PythonWorksp\\TensorFlow\\furniture\\bed\\baby-bed\\babyantcribs.gif"
        string_val: "…"
        string_val: "…"
        string_val: "D:\\TensorFlowDev\\PythonWorksp\\TensorFlow\\furniture\\bed\\baby-bed\\woodstore_1804_17878434.gif"
        string_val: "…"
        string_val: "D:\\TensorFlowDev\\PythonWorksp\\TensorFlow\\furniture\\bed\\bunk-bed\\bunk-bed1000.jpg"
        string_val: "D:\\TensorFlowDev\\PythonWorksp\\TensorFlow\\furniture\\bed\\bunk-bed\\bunk-bed1001.jpg"
        string_val: "D:\\TensorFlowDev\\PythonWorksp\\TensorFlow\\furniture\\bed\\bunk-bed\\bunk-bed453.jpg"
        string_val: "D:\\TensorFlowDev\\PythonWorksp\\TensorFlow\\furniture\\bed\\bunk-bed\\bunk-bed454.jpg"
        string_val: "D:\\TensorFlowDev\\PythonWorksp\\TensorFlow\\furniture\\bed\\bunk-bed\\bunk-bed455.jpg"
        string_val: "D:\\TensorFlowDev\\PythonWorksp\\TensorFlow\\furniture\\bed\\bunk-bed\\bunk-bed456.jpg"
        string_val: "D:\\TensorFlowDev\\PythonWorksp\\TensorFlow\\furniture\\bed\\bunk-bed\\bunk-bed457.jpg"
        string_val: "D:\\TensorFlowDev\\PythonWorksp\\TensorFlow\\furniture\\bed\\bunk-bed\\bunk-bed458.jpg"
        string_val: "D:\\TensorFlowDev\\PythonWorksp\\TensorFlow\\furniture\\bed\\bunk-bed\\bunk-bed459.jpg"
        string_val: "D:\\TensorFlowDev\\PythonWorksp\\TensorFlow\\furniture\\bed\\bunk-bed\\bunk-bed460.jpg"
        string_val: "D:\\TensorFlowDev\\PythonWorksp\\TensorFlow\\furniture\\bed\\bunk-bed\\bunk-bed461.jpg"
        string_val: "D:\\TensorFlowDev\\PythonWorksp\\TensorFlow\\furniture\\bed\\bunk-bed\\bunk-bed462.jpg"
        string_val: "D:\\TensorFlowDev\\PythonWorksp\\TensorFlow\\furniture\\bed\\bunk-bed\\bunk-bed463.jpg"
        string_val: "D:\\TensorFlowDev\\PythonWorksp\\TensorFlow\\furniture\\bed\\bunk-bed\\bunk-bed464.jpg"
        string_val: "D:\\TensorFlowDev\\PythonWorksp\\TensorFlow\\furniture\\bed\\bunk-bed\\bunk-bed465.jpg"
        string_val: "D:\\TensorFlowDev\\PythonWorksp\\TensorFlow\\furniture\\bed\\bunk-bed\\bunk-bed466.jpg"
        string_val: "D:\\TensorFlowDev\\PythonWorksp\\TensorFlow\\furniture\\bed\\bunk-bed\\bunk-bed467.jpg"
        string_val: "D:\\TensorFlowDev\\PythonWorksp\\TensorFlow\\furniture\\bed\\bunk-bed\\bunk-bed468.jpg"
        string_val: "D:\\TensorFlowDev\\PythonWorksp\\TensorFlow\\furniture\\bed\\bunk-bed\\bunk-bed469.jpg"
        string_val: "D:\\TensorFlowDev\\PythonWorksp\\TensorFlow\\furniture\\bed\\bunk-bed\\bunk-bed470.jpg"
        string_val: "D:\\TensorFlowDev\\PythonWorksp\\TensorFlow\\furniture\\bed\\bunk-bed\\bunk-bed471.jpg"
        string_val: "D:\\TensorFlowDev\\PythonWorksp\\TensorFlow\\furniture\\bed\\bunk-bed\\bunk-bed472.jpg"
        string_val: "D:\\TensorFlowDev\\PythonWorksp\\TensorFlow\\furniture\\bed\\bunk-bed\\bunk-bed473.jpg"
        string_val: "D:\\TensorFlowDev\\PythonWorksp\\TensorFlow\\furniture\\bed\\bunk-bed\\bunk-bed474.jpg"
        string_val: "D:\\TensorFlowDev\\PythonWorksp\\TensorFlow\\furniture\\bed\\bunk-bed\\bunk-bed475.jpg"
        string_val: "D:\\TensorFlowDev\\PythonWorksp\\TensorFlow\\furniture\\bed\\bunk-bed\\bunk-bed476.jpg"
        string_val: "D:\\TensorFlowDev\\PythonWorksp\\TensorFlow\\furniture\\bed\\bunk-bed\\bunk-bed477.jpg"
        string_val: "D:\\TensorFlowDev\\PythonWorksp\\TensorFlow\\furniture\\bed\\bunk-bed\\bunk-bed478.jpg"
        string_val: "D:\\TensorFlowDev\\PythonWorksp\\TensorFlow\\furniture\\bed\\bunk-bed\\bunk-bed479.jpg"
        string_val: "D:\\TensorFlowDev\\PythonWorksp\\TensorFlow\\furniture\\bed\\bunk-bed\\bunk-bed480.jpg"
        string_val: "D:\\TensorFlowDev\\PythonWorksp\\TensorFlow\\furniture\\bed\\bunk-bed\\bunk-bed481.jpg"
        string_val: "D:\\TensorFlowDev\\PythonWorksp\\TensorFlow\\furniture\\bed\\bunk-bed\\bunk-bed482.jpg"
        string_val: "D:\\TensorFlowDev\\PythonWorksp\\TensorFlow\\furniture\\bed\\bunk-bed\\bunk-bed483.jpg"
        string_val: "D:\\TensorFlowDev\\PythonWorksp\\TensorFlow\\furniture\\bed\\bunk-bed\\bunk-bed484.jpg"
        string_val: "D:\\TensorFlowDev\\PythonWorksp\\TensorFlow\\furniture\\bed\\bunk-bed\\bunk-bed485.jpg"
        string_val: "D:\\TensorFlowDev\\PythonWorksp\\TensorFlow\\furniture\\bed\\bunk-bed\\bunk-bed486.jpg"
        string_val: "D:\\TensorFlowDev\\PythonWorksp\\TensorFlow\\furniture\\bed\\bunk-bed\\bunk-bed487.jpg"
        string_val: "D:\\TensorFlowDev\\PythonWorksp\\TensorFlow\\furniture\\bed\\bunk-bed\\bunk-bed488.jpg"
        string_val: "D:\\TensorFlowDev\\PythonWorksp\\TensorFlow\\furniture\\bed\\bunk-bed\\bunk-bed489.jpg"
        string_val: "D:\\TensorFlowDev\\PythonWorksp\\TensorFlow\\furniture\\bed\\bunk-bed\\bunk-bed490.jpg"
        string_val: "D:\\TensorFlowDev\\PythonWorksp\\TensorFlow\\furniture\\bed\\bunk-bed\\bunk-bed491.jpg"
        string_val: "D:\\TensorFlowDev\\PythonWorksp\\TensorFlow\\furniture\\bed\\bunk-bed\\bunk-bed492.jpg"
        string_val: "D:\\TensorFlowDev\\PythonWorksp\\TensorFlow\\furniture\\bed\\bunk-bed\\bunk-bed493.jpg"
        string_val: "D:\\TensorFlowDev\\PythonWorksp\\TensorFlow\\furniture\\bed\\bunk-bed\\bunk-bed494.jpg"
        string_val: "D:\\TensorFlowDev\\PythonWorksp\\TensorFlow\\furniture\\bed\\bunk-bed\\bunk-bed495.jpg"
        string_val: "D:\\TensorFlowDev\\PythonWorksp\\TensorFlow\\furniture\\bed\\bunk-bed\\bunk-bed496.jpg"
        string_val: "D:\\TensorFlowDev\\PythonWorksp\\TensorFlow\\furniture\\bed\\bunk-bed\\bunk-bed497.jpg"
        string_val: "D:\\TensorFlowDev\\PythonWorksp\\TensorFlow\\furniture\\bed\\bunk-bed\\bunk-bed498.jpg"
        string_val: "D:\\TensorFlowDev\\PythonWorksp\\TensorFlow\\furniture\\bed\\bunk-bed\\bunk-bed499.jpg"
        string_val: "D:\\TensorFlowDev\\PythonWorksp\\TensorFlow\\furniture\\bed\\bunk-bed\\bunk-bed500.jpg"
        string_val: "D:\\TensorFlowDev\\PythonWorksp\\TensorFlow\\furniture\\bed\\bunk-bed\\bunk-bed501.jpg"
        string_val: "D:\\TensorFlowDev\\PythonWorksp\\TensorFlow\\furniture\\bed\\bunk-bed\\bunk-bed502.jpg"
        string_val: "D:\\TensorFlowDev\\PythonWorksp\\TensorFlow\\furniture\\bed\\bunk-bed\\bunk-bed503.jpg"
        string_val: "D:\\TensorFlowDev\\PythonWorksp\\TensorFlow\\furniture\\bed\\bunk-bed\\bunk-bed504.jpg"
        string_val: "D:\\TensorFlowDev\\PythonWorksp\\TensorFlow\\furniture\\bed\\bunk-bed\\bunk-bed505.jpg"
        string_val: "D:\\TensorFlowDev\\PythonWorksp\\TensorFlow\\furniture\\bed\\bunk-bed\\bunk-bed506.jpg"
        string_val: "D:\\TensorFlowDev\\PythonWorksp\\TensorFlow\\furniture\\bed\\bunk-bed\\bunk-bed507.jpg"
        string_val: "D:\\TensorFlowDev\\PythonWorksp\\TensorFlow\\furniture\\bed\\bunk-bed\\bunk-bed508.jpg"
        string_val: "D:\\TensorFlowDev\\PythonWorksp\\TensorFlow\\furniture\\bed\\bunk-bed\\bunk-bed509.jpg"
        string_val: "D:\\TensorFlowDev\\PythonWorksp\\TensorFlow\\furniture\\bed\\bunk-bed\\bunk-bed510.jpg"
        string_val: "D:\\TensorFlowDev\\PythonWorksp\\TensorFlow\\furniture\\bed\\bunk-bed\\bunk-bed511.jpg"
        string_val: "D:\\TensorFlowDev\\PythonWorksp\\TensorFlow\\furniture\\bed\\bunk-bed\\bunk-bed512.jpg"
        string_val: "D:\\TensorFlowDev\\PythonWorksp\\TensorFlow\\furniture\\bed\\bunk-bed\\bunk-bed513.jpg"
        string_val: "D:\\TensorFlowDev\\PythonWorksp\\TensorFlow\\furniture\\bed\\bunk-bed\\bunk-bed514.jpg"
        string_val: "D:\\TensorFlowDev\\PythonWorksp\\TensorFlow\\furniture\\bed\\bunk-bed\\bunk-bed515.jpg"
        string_val: "D:\\TensorFlowDev\\PythonWorksp\\TensorFlow\\furniture\\bed\\bunk-bed\\bunk-bed516.jpg"
        string_val: "D:\\TensorFlowDev\\PythonWorksp\\TensorFlow\\furniture\\bed\\bunk-bed\\bunk-bed517.jpg"
        string_val: "D:\\TensorFlowDev\\PythonWorksp\\TensorFlow\\furniture\\bed\\bunk-bed\\bunk-bed518.jpg"
        string_val: "D:\\TensorFlowDev\\PythonWorksp\\TensorFlow\\furniture\\bed\\bunk-bed\\bunk-bed519.jpg"
        string_val: "D:\\TensorFlowDev\\PythonWorksp\\TensorFlow\\furniture\\bed\\bunk-bed\\bunk-bed520.jpg"
        string_val: "D:\\TensorFlowDev\\PythonWorksp\\TensorFlow\\furniture\\bed\\bunk-bed\\bunk-bed521.jpg"
        string_val: "D:\\TensorFlowDev\\PythonWorksp\\TensorFlow\\furniture\\bed\\bunk-bed\\bunk-bed522.jpg"
        string_val: "D:\\TensorFlowDev\\PythonWorksp\\TensorFlow\\furniture\\bed\\bunk-bed\\bunk-bed523.jpg"
        string_val: "D:\\TensorFlowDev\\PythonWorksp\\TensorFlow\\furniture\\bed\\bunk-bed\\bunk-bed524.jpg"
        string_val: "D:\\TensorFlowDev\\PythonWorksp\\TensorFlow\\furniture\\bed\\bunk-bed\\bunk-bed525.jpg"
        string_val: "D:\\TensorFlowDev\\PythonWorksp\\TensorFlow\\furniture\\bed\\bunk-bed\\bunk-bed526.jpg"
        string_val: "D:\\TensorFlowDev\\PythonWorksp\\TensorFlow\\furniture\\bed\\bunk-bed\\bunk-bed527.jpg"
        string_val: "D:\\TensorFlowDev\\PythonWorksp\\TensorFlow\\furniture\\bed\\bunk-bed\\bunk-bed528.jpg"
        string_val: "D:\\TensorFlowDev\\PythonWorksp\\TensorFlow\\furniture\\bed\\bunk-bed\\bunk-bed529.jpg"
        string_val: "D:\\TensorFlowDev\\PythonWorksp\\TensorFlow\\furniture\\bed\\bunk-bed\\bunk-bed530.jpg"
        string_val: "D:\\TensorFlowDev\\PythonWorksp\\TensorFlow\\furniture\\bed\\bunk-bed\\bunk-bed531.jpg"
        string_val: "D:\\TensorFlowDev\\PythonWorksp\\TensorFlow\\furniture\\bed\\bunk-bed\\bunk-bed532.jpg"
        string_val: "D:\\TensorFlowDev\\PythonWorksp\\TensorFlow\\furniture\\bed\\bunk-bed\\bunk-bed533.jpg"
        string_val: "D:\\TensorFlowDev\\PythonWorksp\\TensorFlow\\furniture\\bed\\bunk-bed\\bunk-bed534.jpg"
        string_val: "D:\\TensorFlowDev\\PythonWorksp\\TensorFlow\\furniture\\bed\\bunk-bed\\bunk-bed535.jpg"
        string_val: "D:\\TensorFlowDev\\PythonWorksp\\TensorFlow\\furniture\\bed\\bunk-bed\\bunk-bed536.jpg"
        string_val: "D:\\TensorFlowDev\\PythonWorksp\\TensorFlow\\furniture\\bed\\bunk-bed\\bunk-bed537.jpg"
        string_val: "D:\\TensorFlowDev\\PythonWorksp\\TensorFlow\\furniture\\bed\\bunk-bed\\bunk-bed538.jpg"
        string_val: "D:\\TensorFlowDev\\PythonWorksp\\TensorFlow\\furniture\\bed\\bunk-bed\\bunk-bed539.jpg"
        string_val: "D:\\TensorFlowDev\\PythonWorksp\\TensorFlow\\furniture\\bed\\bunk-bed\\bunk-bed540.jpg"
        string_val: "D:\\TensorFlowDev\\PythonWorksp\\TensorFlow\\furniture\\bed\\bunk-bed\\bunk-bed541.jpg"
        string_val: "D:\\TensorFlowDev\\PythonWorksp\\TensorFlow\\furniture\\bed\\bunk-bed\\bunk-bed542.jpg"
        string_val: "D:\\TensorFlowDev\\PythonWorksp\\TensorFlow\\furniture\\bed\\bunk-bed\\bunk-bed543.jpg"
        string_val: "D:\\TensorFlowDev\\PythonWorksp\\TensorFlow\\furniture\\bed\\bunk-bed\\bunk-bed544.jpg"
        string_val: "D:\\TensorFlowDev\\PythonWorksp\\TensorFlow\\furniture\\bed\\bunk-bed\\bunk-bed545.jpg"
        string_val: "D:\\TensorFlowDev\\PythonWorksp\\TensorFlow\\furniture\\bed\\bunk-bed\\bunk-bed546.jpg"
        string_val: "D:\\TensorFlowDev\\PythonWorksp\\TensorFlow\\furniture\\bed\\bunk-bed\\bunk-bed547.jpg"
        string_val: "D:\\TensorFlowDev\\PythonWorksp\\TensorFlow\\furniture\\bed\\bunk-bed\\bunk-bed548.jpg"
        string_val: "D:\\TensorFlowDev\\PythonWorksp\\TensorFlow\\furniture\\bed\\bunk-bed\\bunk-bed549.jpg"
        string_val: "D:\\TensorFlowDev\\PythonWorksp\\TensorFlow\\furniture\\bed\\bunk-bed\\bunk-bed550.jpg"
        string_val: "D:\\TensorFlowDev\\PythonWorksp\\TensorFlow\\furniture\\bed\\bunk-bed\\bunk-bed551.jpg"
        string_val: "D:\\TensorFlowDev\\PythonWorksp\\TensorFlow\\furniture\\bed\\bunk-bed\\bunk-bed552.jpg"
        string_val: "D:\\TensorFlowDev\\PythonWorksp\\TensorFlow\\furniture\\bed\\bunk-bed\\bunk-bed553.jpg"
        string_val: "D:\\TensorFlowDev\\PythonWorksp\\TensorFlow\\furniture\\bed\\bunk-bed\\bunk-bed554.jpg"
        string_val: "D:\\TensorFlowDev\\PythonWorksp\\TensorFlow\\furniture\\bed\\bunk-bed\\bunk-bed555.jpg"
        string_val: "D:\\TensorFlowDev\\PythonWorksp\\TensorFlow\\furniture\\bed\\bunk-bed\\bunk-bed556.jpg"
        string_val: "D:\\TensorFlowDev\\PythonWorksp\\TensorFlow\\furniture\\bed\\bunk-bed\\bunk-bed557.jpg"
        string_val: "D:\\TensorFlowDev\\PythonWorksp\\TensorFlow\\furniture\\bed\\bunk-bed\\bunk-bed558.jpg"
        string_val: "D:\\TensorFlowDev\\PythonWorksp\\TensorFlow\\furniture\\bed\\bunk-bed\\bunk-bed559.jpg"
        string_val: "D:\\TensorFlowDev\\PythonWorksp\\TensorFlow\\furniture\\bed\\bunk-bed\\bunk-bed560.jpg"
        string_val: "D:\\TensorFlowDev\\PythonWorksp\\TensorFlow\\furniture\\bed\\bunk-bed\\bunk-bed561.jpg"
        string_val: "D:\\TensorFlowDev\\PythonWorksp\\TensorFlow\\furniture\\bed\\bunk-bed\\bunk-bed562.jpg"
        string_val: "D:\\TensorFlowDev\\PythonWorksp\\TensorFlow\\furniture\\bed\\bunk-bed\\bunk-bed563.jpg"
        string_val: "D:\\TensorFlowDev\\PythonWorksp\\TensorFlow\\furniture\\bed\\bunk-bed\\bunk-bed564.jpg"
        string_val: "D:\\TensorFlowDev\\PythonWorksp\\TensorFlow\\furniture\\bed\\bunk-bed\\bunk-bed565.jpg"
        string_val: "D:\\TensorFlowDev\\PythonWorksp\\TensorFlow\\furniture\\bed\\bunk-bed\\bunk-bed566.jpg"
        string_val: "D:\\TensorFlowDev\\PythonWorksp\\TensorFlow\\furniture\\bed\\bunk-bed\\bunk-bed567.jpg"
        string_val: "D:\\TensorFlowDev\\PythonWorksp\\TensorFlow\\furniture\\bed\\bunk-bed\\bunk-bed568.jpg"
        string_val: "D:\\TensorFlowDev\\PythonWorksp\\TensorFlow\\furniture\\bed\\bunk-bed\\bunk-bed569.jpg"
        string_val: "D:\\TensorFlowDev\\PythonWorksp\\TensorFlow\\furniture\\bed\\bunk-bed\\bunk-bed570.jpg"
        string_val: "D:\\TensorFlowDev\\PythonWorksp\\TensorFlow\\furniture\\bed\\bunk-bed\\bunk-bed571.jpg"
        string_val: "D:\\TensorFlowDev\\PythonWorksp\\TensorFlow\\furniture\\bed\\bunk-bed\\bunk-bed572.jpg"
        string_val: "D:\\TensorFlowDev\\PythonWorksp\\TensorFlow\\furniture\\bed\\bunk-bed\\bunk-bed573.jpg"
        string_val: "D:\\TensorFlowDev\\PythonWorksp\\TensorFlow\\furniture\\bed\\bunk-bed\\bunk-bed574.jpg"
        string_val: "D:\\TensorFlowDev\\PythonWorksp\\TensorFlow\\furniture\\bed\\bunk-bed\\bunk-bed575.jpg"
        string_val: "D:\\TensorFlowDev\\PythonWorksp\\TensorFlow\\furniture\\bed\\bunk-bed\\bunk-bed576.jpg"
        string_val: "D:\\TensorFlowDev\\PythonWorksp\\TensorFlow\\furniture\\bed\\bunk-bed\\bunk-bed577.jpg"
        string_val: "D:\\TensorFlowDev\\PythonWorksp\\TensorFlow\\furniture\\bed\\bunk-bed\\bunk-bed578.jpg"
        string_val: "D:\\TensorFlowDev\\PythonWorksp\\TensorFlow\\furniture\\bed\\bunk-bed\\bunk-bed579.jpg"
        string_val: "D:\\TensorFlowDev\\PythonWorksp\\TensorFlow\\furniture\\bed\\bunk-bed\\bunk-bed580.jpg"
        string_val: "D:\\TensorFlowDev\\PythonWorksp\\TensorFlow\\furniture\\bed\\bunk-bed\\bunk-bed581.jpg"
        string_val: "D:\\TensorFlowDev\\PythonWorksp\\TensorFlow\\furniture\\bed\\bunk-bed\\bunk-bed582.jpg"
        string_val: "D:\\TensorFlowDev\\PythonWorksp\\TensorFlow\\furniture\\bed\\bunk-bed\\bunk-bed583.jpg"
        string_val: "D:\\TensorFlowDev\\PythonWorksp\\TensorFlow\\furniture\\bed\\bunk-bed\\bunk-bed584.jpg"
        string_val: "D:\\TensorFlowDev\\PythonWorksp\\TensorFlow\\furniture\\bed\\bunk-bed\\bunk-bed585.jpg"
        string_val: "D:\\TensorFlowDev\\PythonWorksp\\TensorFlow\\furniture\\bed\\bunk-bed\\bunk-bed586.jpg"
        string_val: "D:\\TensorFlowDev\\PythonWorksp\\TensorFlow\\furniture\\bed\\bunk-bed\\bunk-bed587.jpg"
        string_val: "D:\\TensorFlowDev\\PythonWorksp\\TensorFlow\\furniture\\bed\\bunk-bed\\bunk-bed588.jpg"
        string_val: "D:\\TensorFlowDev\\PythonWorksp\\TensorFlow\\furniture\\bed\\bunk-bed\\bunk-bed589.jpg"
        string_val: "D:\\TensorFlowDev\\PythonWorksp\\TensorFlow\\furniture\\bed\\bunk-bed\\bunk-bed590.jpg"
        string_val: "D:\\TensorFlowDev\\PythonWorksp\\TensorFlow\\furniture\\bed\\bunk-bed\\bunk-bed591.jpg"
        string_val: "D:\\TensorFlowDev\\PythonWorksp\\TensorFlow\\furniture\\bed\\bunk-bed\\bunk-bed592.jpg"
        string_val: "D:\\TensorFlowDev\\PythonWorksp\\TensorFlow\\furniture\\bed\\bunk-bed\\bunk-bed593.jpg"
        string_val: "D:\\TensorFlowDev\\PythonWorksp\\TensorFlow\\furniture\\bed\\bunk-bed\\bunk-bed594.jpg"
        string_val: "D:\\TensorFlowDev\\PythonWorksp\\TensorFlow\\furniture\\bed\\bunk-bed\\bunk-bed595.jpg"
        string_val: "D:\\TensorFlowDev\\PythonWorksp\\TensorFlow\\furniture\\bed\\bunk-bed\\bunk-bed596.jpg"
        string_val: "D:\\TensorFlowDev\\PythonWorksp\\TensorFlow\\furniture\\bed\\bunk-bed\\bunk-bed597.jpg"
        string_val: "D:\\TensorFlowDev\\PythonWorksp\\TensorFlow\\furniture\\bed\\bunk-bed\\bunk-bed598.jpg"
        string_val: "D:\\TensorFlowDev\\PythonWorksp\\TensorFlow\\furniture\\bed\\bunk-bed\\bunk-bed599.jpg"
        string_val: "D:\\TensorFlowDev\\PythonWorksp\\TensorFlow\\furniture\\bed\\bunk-bed\\bunk-bed600.jpg"
        string_val: "D:\\TensorFlowDev\\PythonWorksp\\TensorFlow\\furniture\\bed\\bunk-bed\\bunk-bed601.jpg"
        string_val: "D:\\TensorFlowDev\\PythonWorksp\\TensorFlow\\furniture\\bed\\bunk-bed\\bunk-bed602.jpg"
        string_val: "D:\\TensorFlowDev\\PythonWorksp\\TensorFlow\\furniture\\bed\\bunk-bed\\bunk-bed603.jpg"
        string_val: "D:\\TensorFlowDev\\PythonWorksp\\TensorFlow\\furniture\\bed\\bunk-bed\\bunk-bed604.jpg"
        string_val: "D:\\TensorFlowDev\\PythonWorksp\\TensorFlow\\furniture\\bed\\bunk-bed\\bunk-bed605.jpg"
        string_val: "D:\\TensorFlowDev\\PythonWorksp\\TensorFlow\\furniture\\bed\\bunk-bed\\bunk-bed606.jpg"
        string_val: "D:\\TensorFlowDev\\PythonWorksp\\TensorFlow\\furniture\\bed\\bunk-bed\\bunk-bed607.jpg"
        string_val: "D:\\TensorFlowDev\\PythonWorksp\\TensorFlow\\furniture\\bed\\bunk-bed\\bunk-bed608.jpg"
        string_val: "D:\\TensorFlowDev\\PythonWorksp\\TensorFlow\\furniture\\bed\\bunk-bed\\bunk-bed609.jpg"
        string_val: "D:\\TensorFlowDev\\PythonWorksp\\TensorFlow\\furniture\\bed\\bunk-bed\\bunk-bed610.jpg"
        string_val: "D:\\TensorFlowDev\\PythonWorksp\\TensorFlow\\furniture\\bed\\bunk-bed\\bunk-bed611.jpg"
        string_val: "D:\\TensorFlowDev\\PythonWorksp\\TensorFlow\\furniture\\bed\\bunk-bed\\bunk-bed612.jpg"
        string_val: "D:\\TensorFlowDev\\PythonWorksp\\TensorFlow\\furniture\\bed\\bunk-bed\\bunk-bed613.jpg"
        string_val: "D:\\TensorFlowDev\\PythonWorksp\\TensorFlow\\furniture\\bed\\bunk-bed\\bunk-bed614.jpg"
        string_val: "D:\\TensorFlowDev\\PythonWorksp\\TensorFlow\\furniture\\bed\\bunk-bed\\bunk-bed615.jpg"
        string_val: "D:\\TensorFlowDev\\PythonWorksp\\TensorFlow\\furniture\\bed\\bunk-bed\\bunk-bed616.jpg"
        string_val: "D:\\TensorFlowDev\\PythonWorksp\\TensorFlow\\furniture\\bed\\bunk-bed\\bunk-bed617.jpg"
        string_val: "D:\\TensorFlowDev\\PythonWorksp\\TensorFlow\\furniture\\bed\\bunk-bed\\bunk-bed618.jpg"
        string_val: "D:\\TensorFlowDev\\PythonWorksp\\TensorFlow\\furniture\\bed\\bunk-bed\\bunk-bed619.jpg"
        string_val: "D:\\TensorFlowDev\\PythonWorksp\\TensorFlow\\furniture\\bed\\bunk-bed\\bunk-bed620.jpg"
        string_val: "D:\\TensorFlowDev\\PythonWorksp\\TensorFlow\\furniture\\bed\\bunk-bed\\bunk-bed621.jpg"
        string_val: "D:\\TensorFlowDev\\PythonWorksp\\TensorFlow\\furniture\\bed\\bunk-bed\\bunk-bed622.jpg"
        string_val: "D:\\TensorFlowDev\\PythonWorksp\\TensorFlow\\furniture\\bed\\bunk-bed\\bunk-bed623.jpg"
        string_val: "D:\\TensorFlowDev\\PythonWorksp\\TensorFlow\\furniture\\bed\\bunk-bed\\bunk-bed624.jpg"
        string_val: "D:\\TensorFlowDev\\PythonWorksp\\TensorFlow\\furniture\\bed\\bunk-bed\\bunk-bed625.jpg"
        string_val: "D:\\TensorFlowDev\\PythonWorksp\\TensorFlow\\furniture\\bed\\bunk-bed\\bunk-bed626.jpg"
        string_val: "D:\\TensorFlowDev\\PythonWorksp\\TensorFlow\\furniture\\bed\\bunk-bed\\bunk-bed627.jpg"
        string_val: "D:\\TensorFlowDev\\PythonWorksp\\TensorFlow\\furniture\\bed\\bunk-bed\\bunk-bed628.jpg"
        string_val: "D:\\TensorFlowDev\\PythonWorksp\\TensorFlow\\furniture\\bed\\bunk-bed\\bunk-bed629.jpg"
        string_val: "D:\\TensorFlowDev\\PythonWorksp\\TensorFlow\\furniture\\bed\\bunk-bed\\bunk-bed630.jpg"
        string_val: "D:\\TensorFlowDev\\PythonWorksp\\TensorFlow\\furniture\\bed\\bunk-bed\\bunk-bed631.jpg"
        string_val: "D:\\TensorFlowDev\\PythonWorksp\\TensorFlow\\furniture\\bed\\bunk-bed\\bunk-bed632.jpg"
        string_val: "D:\\TensorFlowDev\\PythonWorksp\\TensorFlow\\furniture\\bed\\bunk-bed\\bunk-bed633.jpg"
        string_val: "D:\\TensorFlowDev\\PythonWorksp\\TensorFlow\\furniture\\bed\\bunk-bed\\bunk-bed634.jpg"
        string_val: "D:\\TensorFlowDev\\PythonWorksp\\TensorFlow\\furniture\\bed\\bunk-bed\\bunk-bed635.jpg"
        string_val: "D:\\TensorFlowDev\\PythonWorksp\\TensorFlow\\furniture\\bed\\bunk-bed\\bunk-bed636.jpg"
        string_val: "D:\\TensorFlowDev\\PythonWorksp\\TensorFlow\\furniture\\bed\\bunk-bed\\bunk-bed637.jpg"
        string_val: "D:\\TensorFlowDev\\PythonWorksp\\TensorFlow\\furniture\\bed\\bunk-bed\\bunk-bed638.jpg"
        string_val: "D:\\TensorFlowDev\\PythonWorksp\\TensorFlow\\furniture\\bed\\bunk-bed\\bunk-bed639.jpg"
        string_val: "D:\\TensorFlowDev\\PythonWorksp\\TensorFlow\\furniture\\bed\\bunk-bed\\bunk-bed640.jpg"
        string_val: "D:\\TensorFlowDev\\PythonWorksp\\TensorFlow\\furniture\\bed\\bunk-bed\\bunk-bed641.jpg"
        string_val: "D:\\TensorFlowDev\\PythonWorksp\\TensorFlow\\furniture\\bed\\bunk-bed\\bunk-bed642.jpg"
        string_val: "D:\\TensorFlowDev\\PythonWorksp\\TensorFlow\\furniture\\bed\\bunk-bed\\bunk-bed643.jpg"
        string_val: "D:\\TensorFlowDev\\PythonWorksp\\TensorFlow\\furniture\\bed\\bunk-bed\\bunk-bed644.jpg"
        string_val: "D:\\TensorFlowDev\\PythonWorksp\\TensorFlow\\furniture\\bed\\bunk-bed\\bunk-bed645.jpg"
        string_val: "D:\\TensorFlowDev\\PythonWorksp\\TensorFlow\\furniture\\bed\\bunk-bed\\bunk-bed646.jpg"
        string_val: "D:\\TensorFlowDev\\PythonWorksp\\TensorFlow\\furniture\\bed\\bunk-bed\\bunk-bed647.jpg"
        string_val: "D:\\TensorFlowDev\\PythonWorksp\\TensorFlow\\furniture\\bed\\bunk-bed\\bunk-bed648.jpg"
        string_val: "D:\\TensorFlowDev\\PythonWorksp\\TensorFlow\\furniture\\bed\\bunk-bed\\bunk-bed649.jpg"
        string_val: "D:\\TensorFlowDev\\PythonWorksp\\TensorFlow\\furniture\\bed\\bunk-bed\\bunk-bed650.jpg"
        string_val: "D:\\TensorFlowDev\\PythonWorksp\\TensorFlow\\furniture\\bed\\bunk-bed\\bunk-bed651.jpg"
        string_val: "D:\\TensorFlowDev\\PythonWorksp\\TensorFlow\\furniture\\bed\\bunk-bed\\bunk-bed652.jpg"
        string_val: "D:\\TensorFlowDev\\PythonWorksp\\TensorFlow\\furniture\\bed\\bunk-bed\\bunk-bed653.jpg"
        string_val: "D:\\TensorFlowDev\\PythonWorksp\\TensorFlow\\furniture\\bed\\bunk-bed\\bunk-bed654.jpg"
        string_val: "D:\\TensorFlowDev\\PythonWorksp\\TensorFlow\\furniture\\bed\\bunk-bed\\bunk-bed655.jpg"
        string_val: "D:\\TensorFlowDev\\PythonWorksp\\TensorFlow\\furniture\\bed\\bunk-bed\\bunk-bed656.jpg"
        string_val: "D:\\TensorFlowDev\\PythonWorksp\\TensorFlow\\furniture\\bed\\bunk-bed\\bunk-bed657.jpg"
        string_val: "D:\\TensorFlowDev\\PythonWorksp\\TensorFlow\\furniture\\bed\\bunk-bed\\bunk-bed658.jpg"
        string_val: "D:\\TensorFlowDev\\PythonWorksp\\TensorFlow\\furniture\\bed\\bunk-bed\\bunk-bed659.jpg"
        string_val: "D:\\TensorFlowDev\\PythonWorksp\\TensorFlow\\furniture\\bed\\bunk-bed\\bunk-bed660.jpg"
        string_val: "D:\\TensorFlowDev\\PythonWorksp\\TensorFlow\\furniture\\bed\\bunk-bed\\bunk-bed661.jpg"
        string_val: "D:\\TensorFlowDev\\PythonWorksp\\TensorFlow\\furniture\\bed\\bunk-bed\\bunk-bed662.jpg"
        string_val: "D:\\TensorFlowDev\\PythonWorksp\\TensorFlow\\furniture\\bed\\bunk-bed\\bunk-bed663.jpg"
        string_val: "D:\\TensorFlowDev\\PythonWorksp\\TensorFlow\\furniture\\bed\\bunk-bed\\bunk-bed664.jpg"
        string_val: "D:\\TensorFlowDev\\PythonWorksp\\TensorFlow\\furniture\\bed\\bunk-bed\\bunk-bed665.jpg"
        string_val: "D:\\TensorFlowDev\\PythonWorksp\\TensorFlow\\furniture\\bed\\bunk-bed\\bunk-bed666.jpg"
        string_val: "D:\\TensorFlowDev\\PythonWorksp\\TensorFlow\\furniture\\bed\\bunk-bed\\bunk-bed667.jpg"
        string_val: "D:\\TensorFlowDev\\PythonWorksp\\TensorFlow\\furniture\\bed\\bunk-bed\\bunk-bed668.jpg"
        string_val: "D:\\TensorFlowDev\\PythonWorksp\\TensorFlow\\furniture\\bed\\bunk-bed\\bunk-bed669.jpg"
        string_val: "D:\\TensorFlowDev\\PythonWorksp\\TensorFlow\\furniture\\bed\\bunk-bed\\bunk-bed670.jpg"
        string_val: "D:\\TensorFlowDev\\PythonWorksp\\TensorFlow\\furniture\\bed\\bunk-bed\\bunk-bed671.jpg"
        string_val: "D:\\TensorFlowDev\\PythonWorksp\\TensorFlow\\furniture\\bed\\bunk-bed\\bunk-bed672.jpg"
        string_val: "D:\\TensorFlowDev\\PythonWorksp\\TensorFlow\\furniture\\bed\\bunk-bed\\bunk-bed673.jpg"
        string_val: "D:\\TensorFlowDev\\PythonWorksp\\TensorFlow\\furniture\\bed\\bunk-bed\\bunk-bed674.jpg"
        string_val: "D:\\TensorFlowDev\\PythonWorksp\\TensorFlow\\furniture\\bed\\bunk-bed\\bunk-bed675.jpg"
        string_val: "D:\\TensorFlowDev\\PythonWorksp\\TensorFlow\\furniture\\bed\\bunk-bed\\bunk-bed676.jpg"
        string_val: "D:\\TensorFlowDev\\PythonWorksp\\TensorFlow\\furniture\\bed\\bunk-bed\\bunk-bed677.jpg"
        string_val: "D:\\TensorFlowDev\\PythonWorksp\\TensorFlow\\furniture\\bed\\bunk-bed\\bunk-bed678.jpg"
        string_val: "D:\\TensorFlowDev\\PythonWorksp\\TensorFlow\\furniture\\bed\\bunk-bed\\bunk-bed679.jpg"
        string_val: "D:\\TensorFlowDev\\PythonWorksp\\TensorFlow\\furniture\\bed\\bunk-bed\\bunk-bed680.jpg"
        string_val: "D:\\TensorFlowDev\\PythonWorksp\\TensorFlow\\furniture\\bed\\bunk-bed\\bunk-bed681.jpg"
        string_val: "D:\\TensorFlowDev\\PythonWorksp\\TensorFlow\\furniture\\bed\\bunk-bed\\bunk-bed682.jpg"
        string_val: "D:\\TensorFlowDev\\PythonWorksp\\TensorFlow\\furniture\\bed\\bunk-bed\\bunk-bed683.jpg"
        string_val: "D:\\TensorFlowDev\\PythonWorksp\\TensorFlow\\furniture\\bed\\bunk-bed\\bunk-bed684.jpg"
        string_val: "D:\\TensorFlowDev\\PythonWorksp\\TensorFlow\\furniture\\bed\\bunk-bed\\bunk-bed685.jpg"
        string_val: "D:\\TensorFlowDev\\PythonWorksp\\TensorFlow\\furniture\\bed\\bunk-bed\\bunk-bed686.jpg"
        string_val: "D:\\TensorFlowDev\\PythonWorksp\\TensorFlow\\furniture\\bed\\bunk-bed\\bunk-bed687.jpg"
        string_val: "D:\\TensorFlowDev\\PythonWorksp\\TensorFlow\\furniture\\bed\\bunk-bed\\bunk-bed688.jpg"
        string_val: "D:\\TensorFlowDev\\PythonWorksp\\TensorFlow\\furniture\\bed\\bunk-bed\\bunk-bed689.jpg"
        string_val: "D:\\TensorFlowDev\\PythonWorksp\\TensorFlow\\furniture\\bed\\bunk-bed\\bunk-bed690.jpg"
        string_val: "D:\\TensorFlowDev\\PythonWorksp\\TensorFlow\\furniture\\bed\\bunk-bed\\bunk-bed691.jpg"
        string_val: "D:\\TensorFlowDev\\PythonWorksp\\TensorFlow\\furniture\\bed\\bunk-bed\\bunk-bed692.jpg"
        string_val: "D:\\TensorFlowDev\\PythonWorksp\\TensorFlow\\furniture\\bed\\bunk-bed\\bunk-bed693.jpg"
        string_val: "D:\\TensorFlowDev\\PythonWorksp\\TensorFlow\\furniture\\bed\\bunk-bed\\bunk-bed694.jpg"
        string_val: "D:\\TensorFlowDev\\PythonWorksp\\TensorFlow\\furniture\\bed\\bunk-bed\\bunk-bed695.jpg"
        string_val: "D:\\TensorFlowDev\\PythonWorksp\\TensorFlow\\furniture\\bed\\bunk-bed\\bunk-bed696.jpg"
        string_val: "D:\\TensorFlowDev\\PythonWorksp\\TensorFlow\\furniture\\bed\\bunk-bed\\bunk-bed697.jpg"
        string_val: "D:\\TensorFlowDev\\PythonWorksp\\TensorFlow\\furniture\\bed\\bunk-bed\\bunk-bed698.jpg"
        string_val: "D:\\TensorFlowDev\\PythonWorksp\\TensorFlow\\furniture\\bed\\bunk-bed\\bunk-bed699.jpg"
        string_val: "D:\\TensorFlowDev\\PythonWorksp\\TensorFlow\\furniture\\bed\\bunk-bed\\bunk-bed700.jpg"
        string_val: "D:\\TensorFlowDev\\PythonWorksp\\TensorFlow\\furniture\\bed\\bunk-bed\\bunk-bed701.jpg"
        string_val: "D:\\TensorFlowDev\\PythonWorksp\\TensorFlow\\furniture\\bed\\bunk-bed\\bunk-bed702.jpg"
        string_val: "D:\\TensorFlowDev\\PythonWorksp\\TensorFlow\\furniture\\bed\\bunk-bed\\bunk-bed703.jpg"
        string_val: "D:\\TensorFlowDev\\PythonWorksp\\TensorFlow\\furniture\\bed\\bunk-bed\\bunk-bed704.jpg"
        string_val: "D:\\TensorFlowDev\\PythonWorksp\\TensorFlow\\furniture\\bed\\bunk-bed\\bunk-bed705.jpg"
        string_val: "D:\\TensorFlowDev\\PythonWorksp\\TensorFlow\\furniture\\bed\\bunk-bed\\bunk-bed706.jpg"
        string_val: "D:\\TensorFlowDev\\PythonWorksp\\TensorFlow\\furniture\\bed\\bunk-bed\\bunk-bed707.jpg"
        string_val: "D:\\TensorFlowDev\\PythonWorksp\\TensorFlow\\furniture\\bed\\bunk-bed\\bunk-bed708.jpg"
        string_val: "D:\\TensorFlowDev\\PythonWorksp\\TensorFlow\\furniture\\bed\\bunk-bed\\bunk-bed709.jpg"
        string_val: "D:\\TensorFlowDev\\PythonWorksp\\TensorFlow\\furniture\\bed\\bunk-bed\\bunk-bed710.jpg"
        string_val: "D:\\TensorFlowDev\\PythonWorksp\\TensorFlow\\furniture\\bed\\bunk-bed\\bunk-bed711.jpg"
        string_val: "D:\\TensorFlowDev\\PythonWorksp\\TensorFlow\\furniture\\bed\\bunk-bed\\bunk-bed712.jpg"
        string_val: "D:\\TensorFlowDev\\PythonWorksp\\TensorFlow\\furniture\\bed\\bunk-bed\\bunk-bed713.jpg"
        string_val: "D:\\TensorFlowDev\\PythonWorksp\\TensorFlow\\furniture\\bed\\bunk-bed\\bunk-bed714.jpg"
        string_val: "D:\\TensorFlowDev\\PythonWorksp\\TensorFlow\\furniture\\bed\\bunk-bed\\bunk-bed715.jpg"
        string_val: "D:\\TensorFlowDev\\PythonWorksp\\TensorFlow\\furniture\\bed\\bunk-bed\\bunk-bed716.jpg"
        string_val: "D:\\TensorFlowDev\\PythonWorksp\\TensorFlow\\furniture\\bed\\bunk-bed\\bunk-bed717.jpg"
        string_val: "D:\\TensorFlowDev\\PythonWorksp\\TensorFlow\\furniture\\bed\\bunk-bed\\bunk-bed718.jpg"
        string_val: "D:\\TensorFlowDev\\PythonWorksp\\TensorFlow\\furniture\\bed\\bunk-bed\\bunk-bed719.jpg"
        string_val: "D:\\TensorFlowDev\\PythonWorksp\\TensorFlow\\furniture\\bed\\bunk-bed\\bunk-bed720.jpg"
        string_val: "D:\\TensorFlowDev\\PythonWorksp\\TensorFlow\\furniture\\bed\\bunk-bed\\bunk-bed721.jpg"
        string_val: "D:\\TensorFlowDev\\PythonWorksp\\TensorFlow\\furniture\\bed\\bunk-bed\\bunk-bed722.jpg"
        string_val: "D:\\TensorFlowDev\\PythonWorksp\\TensorFlow\\furniture\\bed\\bunk-bed\\bunk-bed723.jpg"
        string_val: "D:\\TensorFlowDev\\PythonWorksp\\TensorFlow\\furniture\\bed\\bunk-bed\\bunk-bed724.jpg"
        string_val: "D:\\TensorFlowDev\\PythonWorksp\\TensorFlow\\furniture\\bed\\bunk-bed\\bunk-bed725.jpg"
        string_val: "D:\\TensorFlowDev\\PythonWorksp\\TensorFlow\\furniture\\bed\\bunk-bed\\bunk-bed726.jpg"
        string_val: "D:\\TensorFlowDev\\PythonWorksp\\TensorFlow\\furniture\\bed\\bunk-bed\\bunk-bed727.jpg"
        string_val: "D:\\TensorFlowDev\\PythonWorksp\\TensorFlow\\furniture\\bed\\bunk-bed\\bunk-bed728.jpg"
        string_val: "D:\\TensorFlowDev\\PythonWorksp\\TensorFlow\\furniture\\bed\\bunk-bed\\bunk-bed729.jpg"
        string_val: "D:\\TensorFlowDev\\PythonWorksp\\TensorFlow\\furniture\\bed\\bunk-bed\\bunk-bed730.jpg"
        string_val: "D:\\TensorFlowDev\\PythonWorksp\\TensorFlow\\furniture\\bed\\bunk-bed\\bunk-bed731.jpg"
        string_val: "D:\\TensorFlowDev\\PythonWorksp\\TensorFlow\\furniture\\bed\\bunk-bed\\bunk-bed732.jpg"
        string_val: "D:\\TensorFlowDev\\PythonWorksp\\TensorFlow\\furniture\\bed\\bunk-bed\\bunk-bed733.jpg"
        string_val: "D:\\TensorFlowDev\\PythonWorksp\\TensorFlow\\furniture\\bed\\bunk-bed\\bunk-bed734.jpg"
        string_val: "D:\\TensorFlowDev\\PythonWorksp\\TensorFlow\\furniture\\bed\\bunk-bed\\bunk-bed735.jpg"
        string_val: "D:\\TensorFlowDev\\PythonWorksp\\TensorFlow\\furniture\\bed\\bunk-bed\\bunk-bed736.jpg"
        string_val: "D:\\TensorFlowDev\\PythonWorksp\\TensorFlow\\furniture\\bed\\bunk-bed\\bunk-bed737.jpg"
        string_val: "D:\\TensorFlowDev\\PythonWorksp\\TensorFlow\\furniture\\bed\\bunk-bed\\bunk-bed738.jpg"
        string_val: "D:\\TensorFlowDev\\PythonWorksp\\TensorFlow\\furniture\\bed\\bunk-bed\\bunk-bed739.jpg"
        string_val: "D:\\TensorFlowDev\\PythonWorksp\\TensorFlow\\furniture\\bed\\bunk-bed\\bunk-bed740.jpg"
        string_val: "D:\\TensorFlowDev\\PythonWorksp\\TensorFlow\\furniture\\bed\\bunk-bed\\bunk-bed741.jpg"
        string_val: "D:\\TensorFlowDev\\PythonWorksp\\TensorFlow\\furniture\\bed\\bunk-bed\\bunk-bed742.jpg"
        string_val: "D:\\TensorFlowDev\\PythonWorksp\\TensorFlow\\furniture\\bed\\bunk-bed\\bunk-bed743.jpg"
        string_val: "D:\\TensorFlowDev\\PythonWorksp\\TensorFlow\\furniture\\bed\\bunk-bed\\bunk-bed744.jpg"
        string_val: "D:\\TensorFlowDev\\PythonWorksp\\TensorFlow\\furniture\\bed\\bunk-bed\\bunk-bed745.jpg"
        string_val: "D:\\TensorFlowDev\\PythonWorksp\\TensorFlow\\furniture\\bed\\bunk-bed\\bunk-bed746.jpg"
        string_val: "D:\\TensorFlowDev\\PythonWorksp\\TensorFlow\\furniture\\bed\\bunk-bed\\bunk-bed747.jpg"
        string_val: "D:\\TensorFlowDev\\PythonWorksp\\TensorFlow\\furniture\\bed\\bunk-bed\\bunk-bed748.jpg"
        string_val: "D:\\TensorFlowDev\\PythonWorksp\\TensorFlow\\furniture\\bed\\bunk-bed\\bunk-bed749.jpg"
        string_val: "D:\\TensorFlowDev\\PythonWorksp\\TensorFlow\\furniture\\bed\\bunk-bed\\bunk-bed750.jpg"
        string_val: "D:\\TensorFlowDev\\PythonWorksp\\TensorFlow\\furniture\\bed\\bunk-bed\\bunk-bed751.jpg"
        string_val: "D:\\TensorFlowDev\\PythonWorksp\\TensorFlow\\furniture\\bed\\bunk-bed\\bunk-bed752.jpg"
        string_val: "D:\\TensorFlowDev\\PythonWorksp\\TensorFlow\\furniture\\bed\\bunk-bed\\bunk-bed753.jpg"
        string_val: "D:\\TensorFlowDev\\PythonWorksp\\TensorFlow\\furniture\\bed\\bunk-bed\\bunk-bed754.jpg"
        string_val: "D:\\TensorFlowDev\\PythonWorksp\\TensorFlow\\furniture\\bed\\bunk-bed\\bunk-bed755.jpg"
        string_val: "D:\\TensorFlowDev\\PythonWorksp\\TensorFlow\\furniture\\bed\\bunk-bed\\bunk-bed756.jpg"
        string_val: "D:\\TensorFlowDev\\PythonWorksp\\TensorFlow\\furniture\\bed\\bunk-bed\\bunk-bed757.jpg"
        string_val: "D:\\TensorFlowDev\\PythonWorksp\\TensorFlow\\furniture\\bed\\bunk-bed\\bunk-bed758.jpg"
        string_val: "D:\\TensorFlowDev\\PythonWorksp\\TensorFlow\\furniture\\bed\\bunk-bed\\bunk-bed759.jpg"
        string_val: "D:\\TensorFlowDev\\PythonWorksp\\TensorFlow\\furniture\\bed\\bunk-bed\\bunk-bed760.jpg"
        string_val: "D:\\TensorFlowDev\\PythonWorksp\\TensorFlow\\furniture\\bed\\bunk-bed\\bunk-bed761.jpg"
        string_val: "D:\\TensorFlowDev\\PythonWorksp\\TensorFlow\\furniture\\bed\\bunk-bed\\bunk-bed762.jpg"
        string_val: "D:\\TensorFlowDev\\PythonWorksp\\TensorFlow\\furniture\\bed\\bunk-bed\\bunk-bed763.jpg"
        string_val: "D:\\TensorFlowDev\\PythonWorksp\\TensorFlow\\furniture\\bed\\bunk-bed\\bunk-bed764.jpg"
        string_val: "D:\\TensorFlowDev\\PythonWorksp\\TensorFlow\\furniture\\bed\\bunk-bed\\bunk-bed765.jpg"
        string_val: "D:\\TensorFlowDev\\PythonWorksp\\TensorFlow\\furniture\\bed\\bunk-bed\\bunk-bed766.jpg"
        string_val: "D:\\TensorFlowDev\\PythonWorksp\\TensorFlow\\furniture\\bed\\bunk-bed\\bunk-bed767.jpg"
        string_val: "D:\\TensorFlowDev\\PythonWorksp\\TensorFlow\\furniture\\bed\\bunk-bed\\bunk-bed768.jpg"
        string_val: "D:\\TensorFlowDev\\PythonWorksp\\TensorFlow\\furniture\\bed\\bunk-bed\\bunk-bed769.jpg"
        string_val: "D:\\TensorFlowDev\\PythonWorksp\\TensorFlow\\furniture\\bed\\bunk-bed\\bunk-bed770.jpg"
        string_val: "D:\\TensorFlowDev\\PythonWorksp\\TensorFlow\\furniture\\bed\\bunk-bed\\bunk-bed771.jpg"
        string_val: "D:\\TensorFlowDev\\PythonWorksp\\TensorFlow\\furniture\\bed\\bunk-bed\\bunk-bed772.jpg"
        string_val: "D:\\TensorFlowDev\\PythonWorksp\\TensorFlow\\furniture\\bed\\bunk-bed\\bunk-bed773.jpg"
        string_val: "D:\\TensorFlowDev\\PythonWorksp\\TensorFlow\\furniture\\bed\\bunk-bed\\bunk-bed774.jpg"
        string_val: "D:\\TensorFlowDev\\PythonWorksp\\TensorFlow\\furniture\\bed\\bunk-bed\\bunk-bed775.jpg"
        string_val: "D:\\TensorFlowDev\\PythonWorksp\\TensorFlow\\furniture\\bed\\bunk-bed\\bunk-bed776.jpg"
        string_val: "D:\\TensorFlowDev\\PythonWorksp\\TensorFlow\\furniture\\bed\\bunk-bed\\bunk-bed777.jpg"
        string_val: "D:\\TensorFlowDev\\PythonWorksp\\TensorFlow\\furniture\\bed\\bunk-bed\\bunk-bed778.jpg"
        string_val: "D:\\TensorFlowDev\\PythonWorksp\\TensorFlow\\furniture\\bed\\bunk-bed\\bunk-bed779.jpg"
        string_val: "D:\\TensorFlowDev\\PythonWorksp\\TensorFlow\\furniture\\bed\\bunk-bed\\bunk-bed780.jpg"
        string_val: "D:\\TensorFlowDev\\PythonWorksp\\TensorFlow\\furniture\\bed\\bunk-bed\\bunk-bed781.jpg"
        string_val: "D:\\TensorFlowDev\\PythonWorksp\\TensorFlow\\furniture\\bed\\bunk-bed\\bunk-bed782.jpg"
        string_val: "D:\\TensorFlowDev\\PythonWorksp\\TensorFlow\\furniture\\bed\\bunk-bed\\bunk-bed783.jpg"
        string_val: "D:\\TensorFlowDev\\PythonWorksp\\TensorFlow\\furniture\\bed\\bunk-bed\\bunk-bed784.jpg"
        string_val: "D:\\TensorFlowDev\\PythonWorksp\\TensorFlow\\furniture\\bed\\bunk-bed\\bunk-bed785.jpg"
        string_val: "D:\\TensorFlowDev\\PythonWorksp\\TensorFlow\\furniture\\bed\\bunk-bed\\bunk-bed786.jpg"
        string_val: "D:\\TensorFlowDev\\PythonWorksp\\TensorFlow\\furniture\\bed\\bunk-bed\\bunk-bed787.jpg"
        string_val: "D:\\TensorFlowDev\\PythonWorksp\\TensorFlow\\furniture\\bed\\bunk-bed\\bunk-bed788.jpg"
        string_val: "D:\\TensorFlowDev\\PythonWorksp\\TensorFlow\\furniture\\bed\\bunk-bed\\bunk-bed789.jpg"
        string_val: "D:\\TensorFlowDev\\PythonWorksp\\TensorFlow\\furniture\\bed\\bunk-bed\\bunk-bed790.jpg"
        string_val: "D:\\TensorFlowDev\\PythonWorksp\\TensorFlow\\furniture\\bed\\bunk-bed\\bunk-bed791.jpg"
        string_val: "D:\\TensorFlowDev\\PythonWorksp\\TensorFlow\\furniture\\bed\\bunk-bed\\bunk-bed792.jpg"
        string_val: "D:\\TensorFlowDev\\PythonWorksp\\TensorFlow\\furniture\\bed\\bunk-bed\\bunk-bed793.jpg"
        string_val: "D:\\TensorFlowDev\\PythonWorksp\\TensorFlow\\furniture\\bed\\bunk-bed\\bunk-bed794.jpg"
        string_val: "D:\\TensorFlowDev\\PythonWorksp\\TensorFlow\\furniture\\bed\\bunk-bed\\bunk-bed795.jpg"
        string_val: "D:\\TensorFlowDev\\PythonWorksp\\TensorFlow\\furniture\\bed\\bunk-bed\\bunk-bed796.jpg"
        string_val: "D:\\TensorFlowDev\\PythonWorksp\\TensorFlow\\furniture\\bed\\bunk-bed\\bunk-bed797.jpg"
        string_val: "D:\\TensorFlowDev\\PythonWorksp\\TensorFlow\\furniture\\bed\\bunk-bed\\bunk-bed798.jpg"
        string_val: "D:\\TensorFlowDev\\PythonWorksp\\TensorFlow\\furniture\\bed\\bunk-bed\\bunk-bed799.jpg"
        string_val: "D:\\TensorFlowDev\\PythonWorksp\\TensorFlow\\furniture\\bed\\bunk-bed\\bunk-bed800.jpg"
        string_val: "D:\\TensorFlowDev\\PythonWorksp\\TensorFlow\\furniture\\bed\\bunk-bed\\bunk-bed801.jpg"
        string_val: "D:\\TensorFlowDev\\PythonWorksp\\TensorFlow\\furniture\\bed\\bunk-bed\\bunk-bed802.jpg"
        string_val: "D:\\TensorFlowDev\\PythonWorksp\\TensorFlow\\furniture\\bed\\bunk-bed\\bunk-bed803.jpg"
        string_val: "D:\\TensorFlowDev\\PythonWorksp\\TensorFlow\\furniture\\bed\\bunk-bed\\bunk-bed804.jpg"
        string_val: "D:\\TensorFlowDev\\PythonWorksp\\TensorFlow\\furniture\\bed\\bunk-bed\\bunk-bed805.jpg"
        string_val: "D:\\TensorFlowDev\\PythonWorksp\\TensorFlow\\furniture\\bed\\bunk-bed\\bunk-bed806.jpg"
        string_val: "D:\\TensorFlowDev\\PythonWorksp\\TensorFlow\\furniture\\bed\\bunk-bed\\bunk-bed807.jpg"
        string_val: "D:\\TensorFlowDev\\PythonWorksp\\TensorFlow\\furniture\\bed\\bunk-bed\\bunk-bed808.jpg"
        string_val: "D:\\TensorFlowDev\\PythonWorksp\\TensorFlow\\furniture\\bed\\bunk-bed\\bunk-bed809.jpg"
        string_val: "D:\\TensorFlowDev\\PythonWorksp\\TensorFlow\\furniture\\bed\\bunk-bed\\bunk-bed810.jpg"
        string_val: "D:\\TensorFlowDev\\PythonWorksp\\TensorFlow\\furniture\\bed\\bunk-bed\\bunk-bed811.jpg"
        string_val: "D:\\TensorFlowDev\\PythonWorksp\\TensorFlow\\furniture\\bed\\bunk-bed\\bunk-bed812.jpg"
        string_val: "D:\\TensorFlowDev\\PythonWorksp\\TensorFlow\\furniture\\bed\\bunk-bed\\bunk-bed813.jpg"
        string_val: "D:\\TensorFlowDev\\PythonWorksp\\TensorFlow\\furniture\\bed\\bunk-bed\\bunk-bed814.jpg"
        string_val: "D:\\TensorFlowDev\\PythonWorksp\\TensorFlow\\furniture\\bed\\bunk-bed\\bunk-bed815.jpg"
        string_val: "D:\\TensorFlowDev\\PythonWorksp\\TensorFlow\\furniture\\bed\\bunk-bed\\bunk-bed816.jpg"
        string_val: "D:\\TensorFlowDev\\PythonWorksp\\TensorFlow\\furniture\\bed\\bunk-bed\\bunk-bed817.jpg"
        string_val: "D:\\TensorFlowDev\\PythonWorksp\\TensorFlow\\furniture\\bed\\bunk-bed\\bunk-bed818.jpg"
        string_val: "D:\\TensorFlowDev\\PythonWorksp\\TensorFlow\\furniture\\bed\\bunk-bed\\bunk-bed819.jpg"
        string_val: "D:\\TensorFlowDev\\PythonWorksp\\TensorFlow\\furniture\\bed\\bunk-bed\\bunk-bed820.jpg"
        string_val: "D:\\TensorFlowDev\\PythonWorksp\\TensorFlow\\furniture\\bed\\bunk-bed\\bunk-bed821.jpg"
        string_val: "D:\\TensorFlowDev\\PythonWorksp\\TensorFlow\\furniture\\bed\\bunk-bed\\bunk-bed822.jpg"
        string_val: "D:\\TensorFlowDev\\PythonWorksp\\TensorFlow\\furniture\\bed\\bunk-bed\\bunk-bed823.jpg"
        string_val: "D:\\TensorFlowDev\\PythonWorksp\\TensorFlow\\furniture\\bed\\bunk-bed\\bunk-bed824.jpg"
        string_val: "D:\\TensorFlowDev\\PythonWorksp\\TensorFlow\\furniture\\bed\\bunk-bed\\bunk-bed825.jpg"
        string_val: "D:\\TensorFlowDev\\PythonWorksp\\TensorFlow\\furniture\\bed\\bunk-bed\\bunk-bed826.jpg"
        string_val: "D:\\TensorFlowDev\\PythonWorksp\\TensorFlow\\furniture\\bed\\bunk-bed\\bunk-bed827.jpg"
        string_val: "D:\\TensorFlowDev\\PythonWorksp\\TensorFlow\\furniture\\bed\\bunk-bed\\bunk-bed828.jpg"
        string_val: "D:\\TensorFlowDev\\PythonWorksp\\TensorFlow\\furniture\\bed\\bunk-bed\\bunk-bed829.jpg"
        string_val: "D:\\TensorFlowDev\\PythonWorksp\\TensorFlow\\furniture\\bed\\bunk-bed\\bunk-bed830.jpg"
        string_val: "D:\\TensorFlowDev\\PythonWorksp\\TensorFlow\\furniture\\bed\\bunk-bed\\bunk-bed831.jpg"
        string_val: "D:\\TensorFlowDev\\PythonWorksp\\TensorFlow\\furniture\\bed\\bunk-bed\\bunk-bed832.jpg"
        string_val: "D:\\TensorFlowDev\\PythonWorksp\\TensorFlow\\furniture\\bed\\bunk-bed\\bunk-bed833.jpg"
        string_val: "D:\\TensorFlowDev\\PythonWorksp\\TensorFlow\\furniture\\bed\\bunk-bed\\bunk-bed834.jpg"
        string_val: "D:\\TensorFlowDev\\PythonWorksp\\TensorFlow\\furniture\\bed\\bunk-bed\\bunk-bed835.jpg"
        string_val: "D:\\TensorFlowDev\\PythonWorksp\\TensorFlow\\furniture\\bed\\bunk-bed\\bunk-bed836.jpg"
        string_val: "D:\\TensorFlowDev\\PythonWorksp\\TensorFlow\\furniture\\bed\\bunk-bed\\bunk-bed837.jpg"
        string_val: "D:\\TensorFlowDev\\PythonWorksp\\TensorFlow\\furniture\\bed\\bunk-bed\\bunk-bed838.jpg"
        string_val: "D:\\TensorFlowDev\\PythonWorksp\\TensorFlow\\furniture\\bed\\bunk-bed\\bunk-bed839.jpg"
        string_val: "D:\\TensorFlowDev\\PythonWorksp\\TensorFlow\\furniture\\bed\\bunk-bed\\bunk-bed840.jpg"
        string_val: "D:\\TensorFlowDev\\PythonWorksp\\TensorFlow\\furniture\\bed\\bunk-bed\\bunk-bed841.jpg"
        string_val: "D:\\TensorFlowDev\\PythonWorksp\\TensorFlow\\furniture\\bed\\bunk-bed\\bunk-bed842.jpg"
        string_val: "D:\\TensorFlowDev\\PythonWorksp\\TensorFlow\\furniture\\bed\\bunk-bed\\bunk-bed843.jpg"
        string_val: "D:\\TensorFlowDev\\PythonWorksp\\TensorFlow\\furniture\\bed\\bunk-bed\\bunk-bed844.jpg"
        string_val: "D:\\TensorFlowDev\\PythonWorksp\\TensorFlow\\furniture\\bed\\bunk-bed\\bunk-bed845.jpg"
        string_val: "D:\\TensorFlowDev\\PythonWorksp\\TensorFlow\\furniture\\bed\\bunk-bed\\bunk-bed846.jpg"
        string_val: "D:\\TensorFlowDev\\PythonWorksp\\TensorFlow\\furniture\\bed\\bunk-bed\\bunk-bed847.jpg"
        string_val: "D:\\TensorFlowDev\\PythonWorksp\\TensorFlow\\furniture\\bed\\bunk-bed\\bunk-bed848.jpg"
        string_val: "D:\\TensorFlowDev\\PythonWorksp\\TensorFlow\\furniture\\bed\\bunk-bed\\bunk-bed849.jpg"
        string_val: "D:\\TensorFlowDev\\PythonWorksp\\TensorFlow\\furniture\\bed\\bunk-bed\\bunk-bed850.jpg"
        string_val: "D:\\TensorFlowDev\\PythonWorksp\\TensorFlow\\furniture\\bed\\bunk-bed\\bunk-bed851.jpg"
        string_val: "D:\\TensorFlowDev\\PythonWorksp\\TensorFlow\\furniture\\bed\\bunk-bed\\bunk-bed852.jpg"
        string_val: "D:\\TensorFlowDev\\PythonWorksp\\TensorFlow\\furniture\\bed\\bunk-bed\\bunk-bed853.jpg"
        string_val: "D:\\TensorFlowDev\\PythonWorksp\\TensorFlow\\furniture\\bed\\bunk-bed\\bunk-bed854.jpg"
        string_val: "D:\\TensorFlowDev\\PythonWorksp\\TensorFlow\\furniture\\bed\\bunk-bed\\bunk-bed855.jpg"
        string_val: "D:\\TensorFlowDev\\PythonWorksp\\TensorFlow\\furniture\\bed\\bunk-bed\\bunk-bed856.jpg"
        string_val: "D:\\TensorFlowDev\\PythonWorksp\\TensorFlow\\furniture\\bed\\bunk-bed\\bunk-bed857.jpg"
        string_val: "D:\\TensorFlowDev\\PythonWorksp\\TensorFlow\\furniture\\bed\\bunk-bed\\bunk-bed858.jpg"
        string_val: "D:\\TensorFlowDev\\PythonWorksp\\TensorFlow\\furniture\\bed\\bunk-bed\\bunk-bed859.jpg"
        string_val: "D:\\TensorFlowDev\\PythonWorksp\\TensorFlow\\furniture\\bed\\bunk-bed\\bunk-bed860.jpg"
        string_val: "D:\\TensorFlowDev\\PythonWorksp\\TensorFlow\\furniture\\bed\\bunk-bed\\bunk-bed861.jpg"
        string_val: "D:\\TensorFlowDev\\PythonWorksp\\TensorFlow\\furniture\\bed\\bunk-bed\\bunk-bed862.jpg"
        string_val: "D:\\TensorFlowDev\\PythonWorksp\\TensorFlow\\furniture\\bed\\bunk-bed\\bunk-bed863.jpg"
        string_val: "D:\\TensorFlowDev\\PythonWorksp\\TensorFlow\\furniture\\bed\\bunk-bed\\bunk-bed864.jpg"
        string_val: "D:\\TensorFlowDev\\PythonWorksp\\TensorFlow\\furniture\\bed\\bunk-bed\\bunk-bed865.jpg"
        string_val: "D:\\TensorFlowDev\\PythonWorksp\\TensorFlow\\furniture\\bed\\bunk-bed\\bunk-bed866.jpg"
        string_val: "D:\\TensorFlowDev\\PythonWorksp\\TensorFlow\\furniture\\bed\\bunk-bed\\bunk-bed867.jpg"
        string_val: "D:\\TensorFlowDev\\PythonWorksp\\TensorFlow\\furniture\\bed\\bunk-bed\\bunk-bed868.jpg"
        string_val: "D:\\TensorFlowDev\\PythonWorksp\\TensorFlow\\furniture\\bed\\bunk-bed\\bunk-bed869.jpg"
        string_val: "D:\\TensorFlowDev\\PythonWorksp\\TensorFlow\\furniture\\bed\\bunk-bed\\bunk-bed870.jpg"
        string_val: "D:\\TensorFlowDev\\PythonWorksp\\TensorFlow\\furniture\\bed\\bunk-bed\\bunk-bed871.jpg"
        string_val: "D:\\TensorFlowDev\\PythonWorksp\\TensorFlow\\furniture\\bed\\bunk-bed\\bunk-bed872.jpg"
        string_val: "D:\\TensorFlowDev\\PythonWorksp\\TensorFlow\\furniture\\bed\\bunk-bed\\bunk-bed873.jpg"
        string_val: "D:\\TensorFlowDev\\PythonWorksp\\TensorFlow\\furniture\\bed\\bunk-bed\\bunk-bed874.jpg"
        string_val: "D:\\TensorFlowDev\\PythonWorksp\\TensorFlow\\furniture\\bed\\bunk-bed\\bunk-bed875.jpg"
        string_val: "D:\\TensorFlowDev\\PythonWorksp\\TensorFlow\\furniture\\bed\\bunk-bed\\bunk-bed876.jpg"
        string_val: "D:\\TensorFlowDev\\PythonWorksp\\TensorFlow\\furniture\\bed\\bunk-bed\\bunk-bed877.jpg"
        string_val: "D:\\TensorFlowDev\\PythonWorksp\\TensorFlow\\furniture\\bed\\bunk-bed\\bunk-bed878.jpg"
        string_val: "D:\\TensorFlowDev\\PythonWorksp\\TensorFlow\\furniture\\bed\\bunk-bed\\bunk-bed879.jpg"
        string_val: "D:\\TensorFlowDev\\PythonWorksp\\TensorFlow\\furniture\\bed\\bunk-bed\\bunk-bed880.jpg"
        string_val: "D:\\TensorFlowDev\\PythonWorksp\\TensorFlow\\furniture\\bed\\bunk-bed\\bunk-bed881.jpg"
        string_val: "D:\\TensorFlowDev\\PythonWorksp\\TensorFlow\\furniture\\bed\\bunk-bed\\bunk-bed882.jpg"
        string_val: "D:\\TensorFlowDev\\PythonWorksp\\TensorFlow\\furniture\\bed\\bunk-bed\\bunk-bed883.jpg"
        string_val: "D:\\TensorFlowDev\\PythonWorksp\\TensorFlow\\furniture\\bed\\bunk-bed\\bunk-bed884.jpg"
        string_val: "D:\\TensorFlowDev\\PythonWorksp\\TensorFlow\\furniture\\bed\\bunk-bed\\bunk-bed885.jpg"
        string_val: "D:\\TensorFlowDev\\PythonWorksp\\TensorFlow\\furniture\\bed\\bunk-bed\\bunk-bed886.jpg"
        string_val: "D:\\TensorFlowDev\\PythonWorksp\\TensorFlow\\furniture\\bed\\bunk-bed\\bunk-bed887.jpg"
        string_val: "D:\\TensorFlowDev\\PythonWorksp\\TensorFlow\\furniture\\bed\\bunk-bed\\bunk-bed888.jpg"
        string_val: "D:\\TensorFlowDev\\PythonWorksp\\TensorFlow\\furniture\\bed\\bunk-bed\\bunk-bed889.jpg"
        string_val: "D:\\TensorFlowDev\\PythonWorksp\\TensorFlow\\furniture\\bed\\bunk-bed\\bunk-bed890.jpg"
        string_val: "D:\\TensorFlowDev\\PythonWorksp\\TensorFlow\\furniture\\bed\\bunk-bed\\bunk-bed891.jpg"
        string_val: "D:\\TensorFlowDev\\PythonWorksp\\TensorFlow\\furniture\\bed\\bunk-bed\\bunk-bed892.jpg"
        string_val: "D:\\TensorFlowDev\\PythonWorksp\\TensorFlow\\furniture\\bed\\bunk-bed\\bunk-bed893.jpg"
        string_val: "D:\\TensorFlowDev\\PythonWorksp\\TensorFlow\\furniture\\bed\\bunk-bed\\bunk-bed894.jpg"
        string_val: "D:\\TensorFlowDev\\PythonWorksp\\TensorFlow\\furniture\\bed\\bunk-bed\\bunk-bed895.jpg"
        string_val: "D:\\TensorFlowDev\\PythonWorksp\\TensorFlow\\furniture\\bed\\bunk-bed\\bunk-bed896.jpg"
        string_val: "D:\\TensorFlowDev\\PythonWorksp\\TensorFlow\\furniture\\bed\\bunk-bed\\bunk-bed897.jpg"
        string_val: "D:\\TensorFlowDev\\PythonWorksp\\TensorFlow\\furniture\\bed\\bunk-bed\\bunk-bed898.jpg"
        string_val: "D:\\TensorFlowDev\\PythonWorksp\\TensorFlow\\furniture\\bed\\bunk-bed\\bunk-bed899.jpg"
        string_val: "D:\\TensorFlowDev\\PythonWorksp\\TensorFlow\\furniture\\bed\\bunk-bed\\bunk-bed900.jpg"
        string_val: "D:\\TensorFlowDev\\PythonWorksp\\TensorFlow\\furniture\\bed\\bunk-bed\\bunk-bed901.jpg"
        string_val: "D:\\TensorFlowDev\\PythonWorksp\\TensorFlow\\furniture\\bed\\bunk-bed\\bunk-bed902.jpg"
        string_val: "D:\\TensorFlowDev\\PythonWorksp\\TensorFlow\\furniture\\bed\\bunk-bed\\bunk-bed903.jpg"
        string_val: "D:\\TensorFlowDev\\PythonWorksp\\TensorFlow\\furniture\\bed\\bunk-bed\\bunk-bed904.jpg"
        string_val: "D:\\TensorFlowDev\\PythonWorksp\\TensorFlow\\furniture\\bed\\bunk-bed\\bunk-bed905.jpg"
        string_val: "D:\\TensorFlowDev\\PythonWorksp\\TensorFlow\\furniture\\bed\\bunk-bed\\bunk-bed906.jpg"
        string_val: "D:\\TensorFlowDev\\PythonWorksp\\TensorFlow\\furniture\\bed\\bunk-bed\\bunk-bed907.jpg"
        string_val: "D:\\TensorFlowDev\\PythonWorksp\\TensorFlow\\furniture\\bed\\bunk-bed\\bunk-bed908.jpg"
        string_val: "D:\\TensorFlowDev\\PythonWorksp\\TensorFlow\\furniture\\bed\\bunk-bed\\bunk-bed909.jpg"
        string_val: "D:\\TensorFlowDev\\PythonWorksp\\TensorFlow\\furniture\\bed\\bunk-bed\\bunk-bed910.jpg"
        string_val: "D:\\TensorFlowDev\\PythonWorksp\\TensorFlow\\furniture\\bed\\bunk-bed\\bunk-bed911.jpg"
        string_val: "D:\\TensorFlowDev\\PythonWorksp\\TensorFlow\\furniture\\bed\\bunk-bed\\bunk-bed912.jpg"
        string_val: "D:\\TensorFlowDev\\PythonWorksp\\TensorFlow\\furniture\\bed\\bunk-bed\\bunk-bed913.jpg"
        string_val: "D:\\TensorFlowDev\\PythonWorksp\\TensorFlow\\furniture\\bed\\bunk-bed\\bunk-bed914.jpg"
        string_val: "D:\\TensorFlowDev\\PythonWorksp\\TensorFlow\\furniture\\bed\\bunk-bed\\bunk-bed915.jpg"
        string_val: "D:\\TensorFlowDev\\PythonWorksp\\TensorFlow\\furniture\\bed\\bunk-bed\\bunk-bed916.jpg"
        string_val: "D:\\TensorFlowDev\\PythonWorksp\\TensorFlow\\furniture\\bed\\bunk-bed\\bunk-bed917.jpg"
        string_val: "D:\\TensorFlowDev\\PythonWorksp\\TensorFlow\\furniture\\bed\\bunk-bed\\bunk-bed918.jpg"
        string_val: "D:\\TensorFlowDev\\PythonWorksp\\TensorFlow\\furniture\\bed\\bunk-bed\\bunk-bed919.jpg"
        string_val: "D:\\TensorFlowDev\\PythonWorksp\\TensorFlow\\furniture\\bed\\bunk-bed\\bunk-bed920.jpg"
        string_val: "D:\\TensorFlowDev\\PythonWorksp\\TensorFlow\\furniture\\bed\\bunk-bed\\bunk-bed921.jpg"
        string_val: "D:\\TensorFlowDev\\PythonWorksp\\TensorFlow\\furniture\\bed\\bunk-bed\\bunk-bed922.jpg"
        string_val: "D:\\TensorFlowDev\\PythonWorksp\\TensorFlow\\furniture\\bed\\bunk-bed\\bunk-bed923.jpg"
        string_val: "D:\\TensorFlowDev\\PythonWorksp\\TensorFlow\\furniture\\bed\\bunk-bed\\bunk-bed924.jpg"
        string_val: "D:\\TensorFlowDev\\PythonWorksp\\TensorFlow\\furniture\\bed\\bunk-bed\\bunk-bed925.jpg"
        string_val: "D:\\TensorFlowDev\\PythonWorksp\\TensorFlow\\furniture\\bed\\bunk-bed\\bunk-bed926.jpg"
        string_val: "D:\\TensorFlowDev\\PythonWorksp\\TensorFlow\\furniture\\bed\\bunk-bed\\bunk-bed927.jpg"
        string_val: "D:\\TensorFlowDev\\PythonWorksp\\TensorFlow\\furniture\\bed\\bunk-bed\\bunk-bed928.jpg"
        string_val: "D:\\TensorFlowDev\\PythonWorksp\\TensorFlow\\furniture\\bed\\bunk-bed\\bunk-bed929.jpg"
        string_val: "D:\\TensorFlowDev\\PythonWorksp\\TensorFlow\\furniture\\bed\\bunk-bed\\bunk-bed930.jpg"
        string_val: "D:\\TensorFlowDev\\PythonWorksp\\TensorFlow\\furniture\\bed\\bunk-bed\\bunk-bed931.jpg"
        string_val: "D:\\TensorFlowDev\\PythonWorksp\\TensorFlow\\furniture\\bed\\bunk-bed\\bunk-bed932.jpg"
        string_val: "D:\\TensorFlowDev\\PythonWorksp\\TensorFlow\\furniture\\bed\\bunk-bed\\bunk-bed933.jpg"
        string_val: "D:\\TensorFlowDev\\PythonWorksp\\TensorFlow\\furniture\\bed\\bunk-bed\\bunk-bed934.jpg"
        string_val: "D:\\TensorFlowDev\\PythonWorksp\\TensorFlow\\furniture\\bed\\bunk-bed\\bunk-bed935.jpg"
        string_val: "D:\\TensorFlowDev\\PythonWorksp\\TensorFlow\\furniture\\bed\\bunk-bed\\bunk-bed936.jpg"
        string_val: "D:\\TensorFlowDev\\PythonWorksp\\TensorFlow\\furniture\\bed\\bunk-bed\\bunk-bed937.jpg"
        string_val: "D:\\TensorFlowDev\\PythonWorksp\\TensorFlow\\furniture\\bed\\bunk-bed\\bunk-bed938.jpg"
        string_val: "D:\\TensorFlowDev\\PythonWorksp\\TensorFlow\\furniture\\bed\\bunk-bed\\bunk-bed939.jpg"
        string_val: "D:\\TensorFlowDev\\PythonWorksp\\TensorFlow\\furniture\\bed\\bunk-bed\\bunk-bed940.jpg"
        string_val: "D:\\TensorFlowDev\\PythonWorksp\\TensorFlow\\furniture\\bed\\bunk-bed\\bunk-bed941.jpg"
        string_val: "D:\\TensorFlowDev\\PythonWorksp\\TensorFlow\\furniture\\bed\\bunk-bed\\bunk-bed942.jpg"
        string_val: "D:\\TensorFlowDev\\PythonWorksp\\TensorFlow\\furniture\\bed\\bunk-bed\\bunk-bed943.jpg"
        string_val: "D:\\TensorFlowDev\\PythonWorksp\\TensorFlow\\furniture\\bed\\bunk-bed\\bunk-bed944.jpg"
        string_val: "D:\\TensorFlowDev\\PythonWorksp\\TensorFlow\\furniture\\bed\\bunk-bed\\bunk-bed945.jpg"
        string_val: "D:\\TensorFlowDev\\PythonWorksp\\TensorFlow\\furniture\\bed\\bunk-bed\\bunk-bed946.jpg"
        string_val: "D:\\TensorFlowDev\\PythonWorksp\\TensorFlow\\furniture\\bed\\bunk-bed\\bunk-bed947.jpg"
        string_val: "D:\\TensorFlowDev\\PythonWorksp\\TensorFlow\\furniture\\bed\\bunk-bed\\bunk-bed948.jpg"
        string_val: "D:\\TensorFlowDev\\PythonWorksp\\TensorFlow\\furniture\\bed\\bunk-bed\\bunk-bed949.jpg"
        string_val: "D:\\TensorFlowDev\\PythonWorksp\\TensorFlow\\furniture\\bed\\bunk-bed\\bunk-bed950.jpg"
        string_val: "D:\\TensorFlowDev\\PythonWorksp\\TensorFlow\\furniture\\bed\\bunk-bed\\bunk-bed951.jpg"
        string_val: "D:\\TensorFlowDev\\PythonWorksp\\TensorFlow\\furniture\\bed\\bunk-bed\\bunk-bed952.jpg"
        string_val: "D:\\TensorFlowDev\\PythonWorksp\\TensorFlow\\furniture\\bed\\bunk-bed\\bunk-bed953.jpg"
        string_val: "D:\\TensorFlowDev\\PythonWorksp\\TensorFlow\\furniture\\bed\\bunk-bed\\bunk-bed954.jpg"
        string_val: "D:\\TensorFlowDev\\PythonWorksp\\TensorFlow\\furniture\\bed\\bunk-bed\\bunk-bed955.jpg"
        string_val: "D:\\TensorFlowDev\\PythonWorksp\\TensorFlow\\furniture\\bed\\bunk-bed\\bunk-bed956.jpg"
        string_val: "D:\\TensorFlowDev\\PythonWorksp\\TensorFlow\\furniture\\bed\\bunk-bed\\bunk-bed957.jpg"
        string_val: "D:\\TensorFlowDev\\PythonWorksp\\TensorFlow\\furniture\\bed\\bunk-bed\\bunk-bed958.jpg"
        string_val: "D:\\TensorFlowDev\\PythonWorksp\\TensorFlow\\furniture\\bed\\bunk-bed\\bunk-bed959.jpg"
        string_val: "D:\\TensorFlowDev\\PythonWorksp\\TensorFlow\\furniture\\bed\\bunk-bed\\bunk-bed960.jpg"
        string_val: "D:\\TensorFlowDev\\PythonWorksp\\TensorFlow\\furniture\\bed\\bunk-bed\\bunk-bed961.jpg"
        string_val: "D:\\TensorFlowDev\\PythonWorksp\\TensorFlow\\furniture\\bed\\bunk-bed\\bunk-bed962.jpg"
        string_val: "D:\\TensorFlowDev\\PythonWorksp\\TensorFlow\\furniture\\bed\\bunk-bed\\bunk-bed963.jpg"
        string_val: "D:\\TensorFlowDev\\PythonWorksp\\TensorFlow\\furniture\\bed\\bunk-bed\\bunk-bed964.jpg"
        string_val: "D:\\TensorFlowDev\\PythonWorksp\\TensorFlow\\furniture\\bed\\bunk-bed\\bunk-bed965.jpg"
        string_val: "D:\\TensorFlowDev\\PythonWorksp\\TensorFlow\\furniture\\bed\\bunk-bed\\bunk-bed966.jpg"
        string_val: "D:\\TensorFlowDev\\PythonWorksp\\TensorFlow\\furniture\\bed\\bunk-bed\\bunk-bed967.jpg"
        string_val: "D:\\TensorFlowDev\\PythonWorksp\\TensorFlow\\furniture\\bed\\bunk-bed\\bunk-bed968.jpg"
        string_val: "D:\\TensorFlowDev\\PythonWorksp\\TensorFlow\\furniture\\bed\\bunk-bed\\bunk-bed969.jpg"
        string_val: "D:\\TensorFlowDev\\PythonWorksp\\TensorFlow\\furniture\\bed\\bunk-bed\\bunk-bed970.jpg"
        string_val: "D:\\TensorFlowDev\\PythonWorksp\\TensorFlow\\furniture\\bed\\bunk-bed\\bunk-bed971.jpg"
        string_val: "D:\\TensorFlowDev\\PythonWorksp\\TensorFlow\\furniture\\bed\\bunk-bed\\bunk-bed972.jpg"
        string_val: "D:\\TensorFlowDev\\PythonWorksp\\TensorFlow\\furniture\\bed\\bunk-bed\\bunk-bed973.jpg"
        string_val: "D:\\TensorFlowDev\\PythonWorksp\\TensorFlow\\furniture\\bed\\bunk-bed\\bunk-bed974.jpg"
        string_val: "D:\\TensorFlowDev\\PythonWorksp\\TensorFlow\\furniture\\bed\\bunk-bed\\bunk-bed975.jpg"
        string_val: "D:\\TensorFlowDev\\PythonWorksp\\TensorFlow\\furniture\\bed\\bunk-bed\\bunk-bed976.jpg"
        string_val: "D:\\TensorFlowDev\\PythonWorksp\\TensorFlow\\furniture\\bed\\bunk-bed\\bunk-bed977.jpg"
        string_val: "D:\\TensorFlowDev\\PythonWorksp\\TensorFlow\\furniture\\bed\\bunk-bed\\bunk-bed978.jpg"
        string_val: "D:\\TensorFlowDev\\PythonWorksp\\TensorFlow\\furniture\\bed\\bunk-bed\\bunk-bed979.jpg"
        string_val: "D:\\TensorFlowDev\\PythonWorksp\\TensorFlow\\furniture\\bed\\bunk-bed\\bunk-bed980.jpg"
        string_val: "D:\\TensorFlowDev\\PythonWorksp\\TensorFlow\\furniture\\bed\\bunk-bed\\bunk-bed981.jpg"
        string_val: "D:\\TensorFlowDev\\PythonWorksp\\TensorFlow\\furniture\\bed\\bunk-bed\\bunk-bed982.jpg"
        string_val: "D:\\TensorFlowDev\\PythonWorksp\\TensorFlow\\furniture\\bed\\bunk-bed\\bunk-bed983.jpg"
        string_val: "D:\\TensorFlowDev\\PythonWorksp\\TensorFlow\\furniture\\bed\\bunk-bed\\bunk-bed984.jpg"
        string_val: "D:\\TensorFlowDev\\PythonWorksp\\TensorFlow\\furniture\\bed\\bunk-bed\\bunk-bed985.jpg"
        string_val: "D:\\TensorFlowDev\\PythonWorksp\\TensorFlow\\furniture\\bed\\bunk-bed\\bunk-bed986.jpg"
        string_val: "D:\\TensorFlowDev\\PythonWorksp\\TensorFlow\\furniture\\bed\\bunk-bed\\bunk-bed987.jpg"
        string_val: "D:\\TensorFlowDev\\PythonWorksp\\TensorFlow\\furniture\\bed\\bunk-bed\\bunk-bed988.jpg"
        string_val: "D:\\TensorFlowDev\\PythonWorksp\\TensorFlow\\furniture\\bed\\bunk-bed\\bunk-bed989.jpg"
        string_val: "D:\\TensorFlowDev\\PythonWorksp\\TensorFlow\\furniture\\bed\\bunk-bed\\bunk-bed990.jpg"
        string_val: "D:\\TensorFlowDev\\PythonWorksp\\TensorFlow\\furniture\\bed\\bunk-bed\\bunk-bed991.jpg"
        string_val: "D:\\TensorFlowDev\\PythonWorksp\\TensorFlow\\furniture\\bed\\bunk-bed\\bunk-bed992.jpg"
        string_val: "D:\\TensorFlowDev\\PythonWorksp\\TensorFlow\\furniture\\bed\\bunk-bed\\bunk-bed993.jpg"
        string_val: "D:\\TensorFlowDev\\PythonWorksp\\TensorFlow\\furniture\\bed\\bunk-bed\\bunk-bed994.jpg"
        string_val: "D:\\TensorFlowDev\\PythonWorksp\\TensorFlow\\furniture\\bed\\bunk-bed\\bunk-bed995.jpg"
        string_val: "D:\\TensorFlowDev\\PythonWorksp\\TensorFlow\\furniture\\bed\\bunk-bed\\bunk-bed996.jpg"
        string_val: "D:\\TensorFlowDev\\PythonWorksp\\TensorFlow\\furniture\\bed\\bunk-bed\\bunk-bed997.jpg"
        string_val: "D:\\TensorFlowDev\\PythonWorksp\\TensorFlow\\furniture\\bed\\bunk-bed\\bunk-bed998.jpg"
        string_val: "D:\\TensorFlowDev\\PythonWorksp\\TensorFlow\\furniture\\bed\\bunk-bed\\bunk-bed999.jpg"
        string_val: "D:\\TensorFlowDev\\PythonWorksp\\TensorFlow\\furniture\\bed\\double-bed\\double-bed1002.jpg"
        string_val: "D:\\TensorFlowDev\\PythonWorksp\\TensorFlow\\furniture\\bed\\double-bed\\double-bed1003.jpg"
        string_val: "D:\\TensorFlowDev\\PythonWorksp\\TensorFlow\\furniture\\bed\\double-bed\\double-bed1004.jpg"
        string_val: "D:\\TensorFlowDev\\PythonWorksp\\TensorFlow\\furniture\\bed\\double-bed\\double-bed1005.jpg"
        string_val: "D:\\TensorFlowDev\\PythonWorksp\\TensorFlow\\furniture\\bed\\double-bed\\double-bed1006.jpg"
        string_val: "D:\\TensorFlowDev\\PythonWorksp\\TensorFlow\\furniture\\bed\\double-bed\\double-bed1007.jpg"
        string_val: "D:\\TensorFlowDev\\PythonWorksp\\TensorFlow\\furniture\\bed\\double-bed\\double-bed1008.jpg"
        string_val: "D:\\TensorFlowDev\\PythonWorksp\\TensorFlow\\furniture\\bed\\double-bed\\double-bed1009.jpg"
        string_val: "D:\\TensorFlowDev\\PythonWorksp\\TensorFlow\\furniture\\bed\\double-bed\\double-bed1010.jpg"
        string_val: "D:\\TensorFlowDev\\PythonWorksp\\TensorFlow\\furniture\\bed\\double-bed\\double-bed1011.jpg"
        string_val: "D:\\TensorFlowDev\\PythonWorksp\\TensorFlow\\furniture\\bed\\double-bed\\double-bed1012.jpg"
        string_val: "D:\\TensorFlowDev\\PythonWorksp\\TensorFlow\\furniture\\bed\\double-bed\\double-bed1013.jpg"
        string_val: "D:\\TensorFlowDev\\PythonWorksp\\TensorFlow\\furniture\\bed\\double-bed\\double-bed1014.jpg"
        string_val: "D:\\TensorFlowDev\\PythonWorksp\\TensorFlow\\furniture\\bed\\double-bed\\double-bed1015.jpg"
        string_val: "D:\\TensorFlowDev\\PythonWorksp\\TensorFlow\\furniture\\bed\\double-bed\\double-bed1016.jpg"
        string_val: "D:\\TensorFlowDev\\PythonWorksp\\TensorFlow\\furniture\\bed\\double-bed\\double-bed1017.jpg"
        string_val: "D:\\TensorFlowDev\\PythonWorksp\\TensorFlow\\furniture\\bed\\double-bed\\double-bed1018.jpg"
        string_val: "D:\\TensorFlowDev\\PythonWorksp\\TensorFlow\\furniture\\bed\\double-bed\\double-bed1019.jpg"
        string_val: "D:\\TensorFlowDev\\PythonWorksp\\TensorFlow\\furniture\\bed\\double-bed\\double-bed1020.jpg"
        string_val: "D:\\TensorFlowDev\\PythonWorksp\\TensorFlow\\furniture\\bed\\double-bed\\double-bed1021.jpg"
        string_val: "D:\\TensorFlowDev\\PythonWorksp\\TensorFlow\\furniture\\bed\\double-bed\\double-bed1022.jpg"
        string_val: "D:\\TensorFlowDev\\PythonWorksp\\TensorFlow\\furniture\\bed\\double-bed\\double-bed1023.jpg"
        string_val: "D:\\TensorFlowDev\\PythonWorksp\\TensorFlow\\furniture\\bed\\double-bed\\double-bed1024.jpg"
        string_val: "D:\\TensorFlowDev\\PythonWorksp\\TensorFlow\\furniture\\bed\\double-bed\\double-bed1025.jpg"
        string_val: "D:\\TensorFlowDev\\PythonWorksp\\TensorFlow\\furniture\\bed\\double-bed\\double-bed1026.jpg"
        string_val: "D:\\TensorFlowDev\\PythonWorksp\\TensorFlow\\furniture\\bed\\double-bed\\double-bed1027.jpg"
        string_val: "D:\\TensorFlowDev\\PythonWorksp\\TensorFlow\\furniture\\bed\\double-bed\\double-bed1028.jpg"
        string_val: "D:\\TensorFlowDev\\PythonWorksp\\TensorFlow\\furniture\\bed\\double-bed\\double-bed1029.jpg"
        string_val: "D:\\TensorFlowDev\\PythonWorksp\\TensorFlow\\furniture\\bed\\double-bed\\double-bed1030.jpg"
        string_val: "D:\\TensorFlowDev\\PythonWorksp\\TensorFlow\\furniture\\bed\\double-bed\\double-bed1031.jpg"
        string_val: "D:\\TensorFlowDev\\PythonWorksp\\TensorFlow\\furniture\\bed\\double-bed\\double-bed1032.jpg"
        string_val: "D:\\TensorFlowDev\\PythonWorksp\\TensorFlow\\furniture\\bed\\double-bed\\double-bed1033.jpg"
        string_val: "D:\\TensorFlowDev\\PythonWorksp\\TensorFlow\\furniture\\bed\\double-bed\\double-bed1034.jpg"
        string_val: "D:\\TensorFlowDev\\PythonWorksp\\TensorFlow\\furniture\\bed\\double-bed\\double-bed1035.jpg"
        string_val: "D:\\TensorFlowDev\\PythonWorksp\\TensorFlow\\furniture\\bed\\double-bed\\double-bed1036.jpg"
        string_val: "D:\\TensorFlowDev\\PythonWorksp\\TensorFlow\\furniture\\bed\\double-bed\\double-bed1037.jpg"
        string_val: "D:\\TensorFlowDev\\PythonWorksp\\TensorFlow\\furniture\\bed\\double-bed\\double-bed1038.jpg"
        string_val: "D:\\TensorFlowDev\\PythonWorksp\\TensorFlow\\furniture\\bed\\double-bed\\double-bed1039.jpg"
        string_val: "D:\\TensorFlowDev\\PythonWorksp\\TensorFlow\\furniture\\bed\\double-bed\\double-bed1040.jpg"
        string_val: "D:\\TensorFlowDev\\PythonWorksp\\TensorFlow\\furniture\\bed\\double-bed\\double-bed1041.jpg"
        string_val: "D:\\TensorFlowDev\\PythonWorksp\\TensorFlow\\furniture\\bed\\double-bed\\double-bed1042.jpg"
        string_val: "D:\\TensorFlowDev\\PythonWorksp\\TensorFlow\\furniture\\bed\\double-bed\\double-bed1043.jpg"
        string_val: "D:\\TensorFlowDev\\PythonWorksp\\TensorFlow\\furniture\\bed\\double-bed\\double-bed1044.jpg"
        string_val: "D:\\TensorFlowDev\\PythonWorksp\\TensorFlow\\furniture\\bed\\double-bed\\double-bed1045.jpg"
        string_val: "D:\\TensorFlowDev\\PythonWorksp\\TensorFlow\\furniture\\bed\\double-bed\\double-bed1046.jpg"
        string_val: "D:\\TensorFlowDev\\PythonWorksp\\TensorFlow\\furniture\\bed\\double-bed\\double-bed1047.jpg"
        string_val: "D:\\TensorFlowDev\\PythonWorksp\\TensorFlow\\furniture\\bed\\double-bed\\double-bed1048.jpg"
        string_val: "D:\\TensorFlowDev\\PythonWorksp\\TensorFlow\\furniture\\bed\\double-bed\\double-bed1049.jpg"
        string_val: "D:\\TensorFlowDev\\PythonWorksp\\TensorFlow\\furniture\\bed\\double-bed\\double-bed1050.jpg"
        string_val: "D:\\TensorFlowDev\\PythonWorksp\\TensorFlow\\furniture\\bed\\double-bed\\double-bed1051.jpg"
        string_val: "D:\\TensorFlowDev\\PythonWorksp\\TensorFlow\\furniture\\bed\\double-bed\\double-bed1052.jpg"
        string_val: "D:\\TensorFlowDev\\PythonWorksp\\TensorFlow\\furniture\\bed\\double-bed\\double-bed1053.jpg"
        string_val: "D:\\TensorFlowDev\\PythonWorksp\\TensorFlow\\furniture\\bed\\double-bed\\double-bed1054.jpg"
        string_val: "D:\\TensorFlowDev\\PythonWorksp\\TensorFlow\\furniture\\bed\\double-bed\\double-bed1055.jpg"
        string_val: "D:\\TensorFlowDev\\PythonWorksp\\TensorFlow\\furniture\\bed\\double-bed\\double-bed1056.jpg"
        string_val: "D:\\TensorFlowDev\\PythonWorksp\\TensorFlow\\furniture\\bed\\double-bed\\double-bed1057.jpg"
        string_val: "D:\\TensorFlowDev\\PythonWorksp\\TensorFlow\\furniture\\bed\\double-bed\\double-bed1058.jpg"
        string_val: "D:\\TensorFlowDev\\PythonWorksp\\TensorFlow\\furniture\\bed\\double-bed\\double-bed1059.jpg"
        string_val: "D:\\TensorFlowDev\\PythonWorksp\\TensorFlow\\furniture\\bed\\double-bed\\double-bed1060.jpg"
        string_val: "D:\\TensorFlowDev\\PythonWorksp\\TensorFlow\\furniture\\bed\\double-bed\\double-bed1061.jpg"
        string_val: "D:\\TensorFlowDev\\PythonWorksp\\TensorFlow\\furniture\\bed\\double-bed\\double-bed1062.jpg"
        string_val: "D:\\TensorFlowDev\\PythonWorksp\\TensorFlow\\furniture\\bed\\double-bed\\double-bed1063.jpg"
        string_val: "D:\\TensorFlowDev\\PythonWorksp\\TensorFlow\\furniture\\bed\\double-bed\\double-bed1064.jpg"
        string_val: "D:\\TensorFlowDev\\PythonWorksp\\TensorFlow\\furniture\\bed\\double-bed\\double-bed1065.jpg"
        string_val: "D:\\TensorFlowDev\\PythonWorksp\\TensorFlow\\furniture\\bed\\double-bed\\double-bed1066.jpg"
        string_val: "D:\\TensorFlowDev\\PythonWorksp\\TensorFlow\\furniture\\bed\\double-bed\\double-bed1067.jpg"
        string_val: "D:\\TensorFlowDev\\PythonWorksp\\TensorFlow\\furniture\\bed\\double-bed\\double-bed1068.jpg"
        string_val: "D:\\TensorFlowDev\\PythonWorksp\\TensorFlow\\furniture\\bed\\double-bed\\double-bed1069.jpg"
        string_val: "D:\\TensorFlowDev\\PythonWorksp\\TensorFlow\\furniture\\bed\\double-bed\\double-bed1070.jpg"
        string_val: "D:\\TensorFlowDev\\PythonWorksp\\TensorFlow\\furniture\\bed\\double-bed\\double-bed1071.jpg"
        string_val: "D:\\TensorFlowDev\\PythonWorksp\\TensorFlow\\furniture\\bed\\double-bed\\double-bed1072.jpg"
        string_val: "D:\\TensorFlowDev\\PythonWorksp\\TensorFlow\\furniture\\bed\\double-bed\\double-bed1073.jpg"
        string_val: "D:\\TensorFlowDev\\PythonWorksp\\TensorFlow\\furniture\\bed\\double-bed\\double-bed1074.jpg"
        string_val: "D:\\TensorFlowDev\\PythonWorksp\\TensorFlow\\furniture\\bed\\double-bed\\double-bed1075.jpg"
        string_val: "D:\\TensorFlowDev\\PythonWorksp\\TensorFlow\\furniture\\bed\\double-bed\\double-bed1076.jpg"
        string_val: "D:\\TensorFlowDev\\PythonWorksp\\TensorFlow\\furniture\\bed\\double-bed\\double-bed1077.jpg"
        string_val: "D:\\TensorFlowDev\\PythonWorksp\\TensorFlow\\furniture\\bed\\double-bed\\double-bed1078.jpg"
        string_val: "D:\\TensorFlowDev\\PythonWorksp\\TensorFlow\\furniture\\bed\\double-bed\\double-bed1079.jpg"
        string_val: "D:\\TensorFlowDev\\PythonWorksp\\TensorFlow\\furniture\\bed\\double-bed\\double-bed1080.jpg"
        string_val: "D:\\TensorFlowDev\\PythonWorksp\\TensorFlow\\furniture\\bed\\double-bed\\double-bed1081.jpg"
        string_val: "D:\\TensorFlowDev\\PythonWorksp\\TensorFlow\\furniture\\bed\\double-bed\\double-bed1082.jpg"
        string_val: "D:\\TensorFlowDev\\PythonWorksp\\TensorFlow\\furniture\\bed\\double-bed\\double-bed1083.jpg"
        string_val: "D:\\TensorFlowDev\\PythonWorksp\\TensorFlow\\furniture\\bed\\double-bed\\double-bed1084.jpg"
        string_val: "D:\\TensorFlowDev\\PythonWorksp\\TensorFlow\\furniture\\bed\\double-bed\\double-bed1085.jpg"
        string_val: "D:\\TensorFlowDev\\PythonWorksp\\TensorFlow\\furniture\\bed\\double-bed\\double-bed1086.jpg"
        string_val: "D:\\TensorFlowDev\\PythonWorksp\\TensorFlow\\furniture\\bed\\double-bed\\double-bed1087.jpg"
        string_val: "D:\\TensorFlowDev\\PythonWorksp\\TensorFlow\\furniture\\bed\\double-bed\\double-bed1088.jpg"
        string_val: "D:\\TensorFlowDev\\PythonWorksp\\TensorFlow\\furniture\\bed\\double-bed\\double-bed1089.jpg"
        string_val: "D:\\TensorFlowDev\\PythonWorksp\\TensorFlow\\furniture\\bed\\double-bed\\double-bed1090.jpg"
        string_val: "D:\\TensorFlowDev\\PythonWorksp\\TensorFlow\\furniture\\bed\\double-bed\\double-bed1091.jpg"
        string_val: "D:\\TensorFlowDev\\PythonWorksp\\TensorFlow\\furniture\\bed\\double-bed\\double-bed1092.jpg"
        string_val: "D:\\TensorFlowDev\\PythonWorksp\\TensorFlow\\furniture\\bed\\double-bed\\double-bed1093.jpg"
        string_val: "D:\\TensorFlowDev\\PythonWorksp\\TensorFlow\\furniture\\bed\\double-bed\\double-bed1094.jpg"
        string_val: "D:\\TensorFlowDev\\PythonWorksp\\TensorFlow\\furniture\\bed\\double-bed\\double-bed1095.jpg"
        string_val: "D:\\TensorFlowDev\\PythonWorksp\\TensorFlow\\furniture\\bed\\double-bed\\double-bed1096.jpg"
        string_val: "D:\\TensorFlowDev\\PythonWorksp\\TensorFlow\\furniture\\bed\\double-bed\\double-bed1097.jpg"
        string_val: "D:\\TensorFlowDev\\PythonWorksp\\TensorFlow\\furniture\\bed\\double-bed\\double-bed1098.jpg"
        string_val: "D:\\TensorFlowDev\\PythonWorksp\\TensorFlow\\furniture\\bed\\double-bed\\double-bed1099.jpg"
        string_val: "D:\\TensorFlowDev\\PythonWorksp\\TensorFlow\\furniture\\bed\\double-bed\\double-bed1100.jpg"
        string_val: "D:\\TensorFlowDev\\PythonWorksp\\TensorFlow\\furniture\\bed\\double-bed\\double-bed1101.jpg"
        string_val: "D:\\TensorFlowDev\\PythonWorksp\\TensorFlow\\furniture\\bed\\double-bed\\double-bed1102.jpg"
        string_val: "D:\\TensorFlowDev\\PythonWorksp\\TensorFlow\\furniture\\bed\\double-bed\\double-bed1103.jpg"
        string_val: "D:\\TensorFlowDev\\PythonWorksp\\TensorFlow\\furniture\\bed\\double-bed\\double-bed1104.jpg"
        string_val: "D:\\TensorFlowDev\\PythonWorksp\\TensorFlow\\furniture\\bed\\double-bed\\double-bed1105.jpg"
        string_val: "D:\\TensorFlowDev\\PythonWorksp\\TensorFlow\\furniture\\bed\\double-bed\\double-bed1106.jpg"
        string_val: "D:\\TensorFlowDev\\PythonWorksp\\TensorFlow\\furniture\\bed\\double-bed\\double-bed1107.jpg"
        string_val: "D:\\TensorFlowDev\\PythonWorksp\\TensorFlow\\furniture\\bed\\double-bed\\double-bed1108.jpg"
        string_val: "D:\\TensorFlowDev\\PythonWorksp\\TensorFlow\\furniture\\bed\\double-bed\\double-bed1109.jpg"
        string_val: "D:\\TensorFlowDev\\PythonWorksp\\TensorFlow\\furniture\\bed\\double-bed\\double-bed1110.jpg"
        string_val: "D:\\TensorFlowDev\\PythonWorksp\\TensorFlow\\furniture\\bed\\double-bed\\double-bed1111.jpg"
        string_val: "D:\\TensorFlowDev\\PythonWorksp\\TensorFlow\\furniture\\bed\\double-bed\\double-bed1112.jpg"
        string_val: "D:\\TensorFlowDev\\PythonWorksp\\TensorFlow\\furniture\\bed\\double-bed\\double-bed1113.jpg"
        string_val: "D:\\TensorFlowDev\\PythonWorksp\\TensorFlow\\furniture\\bed\\double-bed\\double-bed1114.jpg"
        string_val: "D:\\TensorFlowDev\\PythonWorksp\\TensorFlow\\furniture\\bed\\double-bed\\double-bed1115.jpg"
        string_val: "D:\\TensorFlowDev\\PythonWorksp\\TensorFlow\\furniture\\bed\\double-bed\\double-bed1116.jpg"
        string_val: "D:\\TensorFlowDev\\PythonWorksp\\TensorFlow\\furniture\\bed\\double-bed\\double-bed1117.jpg"
        string_val: "D:\\TensorFlowDev\\PythonWorksp\\TensorFlow\\furniture\\bed\\double-bed\\double-bed1118.jpg"
        string_val: "D:\\TensorFlowDev\\PythonWorksp\\TensorFlow\\furniture\\bed\\double-bed\\double-bed1119.jpg"
        string_val: "D:\\TensorFlowDev\\PythonWorksp\\TensorFlow\\furniture\\bed\\double-bed\\double-bed1120.jpg"
        string_val: "D:\\TensorFlowDev\\PythonWorksp\\TensorFlow\\furniture\\bed\\double-bed\\double-bed1121.jpg"
        string_val: "D:\\TensorFlowDev\\PythonWorksp\\TensorFlow\\furniture\\bed\\double-bed\\double-bed1122.jpg"
        string_val: "D:\\TensorFlowDev\\PythonWorksp\\TensorFlow\\furniture\\bed\\double-bed\\double-bed1123.jpg"
        string_val: "D:\\TensorFlowDev\\PythonWorksp\\TensorFlow\\furniture\\bed\\double-bed\\double-bed1124.jpg"
        string_val: "D:\\TensorFlowDev\\PythonWorksp\\TensorFlow\\furniture\\bed\\double-bed\\double-bed1125.jpg"
        string_val: "D:\\TensorFlowDev\\PythonWorksp\\TensorFlow\\furniture\\bed\\double-bed\\double-bed1126.jpg"
        string_val: "D:\\TensorFlowDev\\PythonWorksp\\TensorFlow\\furniture\\bed\\double-bed\\double-bed1127.jpg"
        string_val: "D:\\TensorFlowDev\\PythonWorksp\\TensorFlow\\furniture\\bed\\double-bed\\double-bed1128.jpg"
        string_val: "D:\\TensorFlowDev\\PythonWorksp\\TensorFlow\\furniture\\bed\\double-bed\\double-bed1129.jpg"
        string_val: "D:\\TensorFlowDev\\PythonWorksp\\TensorFlow\\furniture\\bed\\double-bed\\double-bed1130.jpg"
        string_val: "D:\\TensorFlowDev\\PythonWorksp\\TensorFlow\\furniture\\bed\\double-bed\\double-bed1131.jpg"
        string_val: "D:\\TensorFlowDev\\PythonWorksp\\TensorFlow\\furniture\\bed\\double-bed\\double-bed1132.jpg"
        string_val: "D:\\TensorFlowDev\\PythonWorksp\\TensorFlow\\furniture\\bed\\double-bed\\double-bed1133.jpg"
        string_val: "D:\\TensorFlowDev\\PythonWorksp\\TensorFlow\\furniture\\bed\\double-bed\\double-bed1134.jpg"
        string_val: "D:\\TensorFlowDev\\PythonWorksp\\TensorFlow\\furniture\\bed\\double-bed\\double-bed1135.jpg"
        string_val: "D:\\TensorFlowDev\\PythonWorksp\\TensorFlow\\furniture\\bed\\double-bed\\double-bed1136.jpg"
        string_val: "D:\\TensorFlowDev\\PythonWorksp\\TensorFlow\\furniture\\bed\\double-bed\\double-bed1137.jpg"
        string_val: "D:\\TensorFlowDev\\PythonWorksp\\TensorFlow\\furniture\\bed\\double-bed\\double-bed1138.jpg"
        string_val: "D:\\TensorFlowDev\\PythonWorksp\\TensorFlow\\furniture\\bed\\double-bed\\double-bed1139.jpg"
        string_val: "D:\\TensorFlowDev\\PythonWorksp\\TensorFlow\\furniture\\bed\\double-bed\\double-bed1140.jpg"
        string_val: "D:\\TensorFlowDev\\PythonWorksp\\TensorFlow\\furniture\\bed\\double-bed\\double-bed1141.jpg"
        string_val: "D:\\TensorFlowDev\\PythonWorksp\\TensorFlow\\furniture\\bed\\double-bed\\double-bed1142.jpg"
        string_val: "D:\\TensorFlowDev\\PythonWorksp\\TensorFlow\\furniture\\bed\\double-bed\\double-bed1143.jpg"
        string_val: "D:\\TensorFlowDev\\PythonWorksp\\TensorFlow\\furniture\\bed\\double-bed\\double-bed1144.jpg"
        string_val: "D:\\TensorFlowDev\\PythonWorksp\\TensorFlow\\furniture\\bed\\double-bed\\double-bed1145.jpg"
        string_val: "D:\\TensorFlowDev\\PythonWorksp\\TensorFlow\\furniture\\bed\\double-bed\\double-bed1146.jpg"
        string_val: "D:\\TensorFlowDev\\PythonWorksp\\TensorFlow\\furniture\\bed\\double-bed\\double-bed1147.jpg"
        string_val: "D:\\TensorFlowDev\\PythonWorksp\\TensorFlow\\furniture\\bed\\double-bed\\double-bed1148.jpg"
        string_val: "D:\\TensorFlowDev\\PythonWorksp\\TensorFlow\\furniture\\bed\\double-bed\\double-bed1149.jpg"
        string_val: "D:\\TensorFlowDev\\PythonWorksp\\TensorFlow\\furniture\\bed\\double-bed\\double-bed1150.jpg"
        string_val: "D:\\TensorFlowDev\\PythonWorksp\\TensorFlow\\furniture\\bed\\double-bed\\double-bed1151.jpg"
        string_val: "D:\\TensorFlowDev\\PythonWorksp\\TensorFlow\\furniture\\bed\\double-bed\\double-bed1152.jpg"
        string_val: "D:\\TensorFlowDev\\PythonWorksp\\TensorFlow\\furniture\\bed\\double-bed\\double-bed1153.jpg"
        string_val: "D:\\TensorFlowDev\\PythonWorksp\\TensorFlow\\furniture\\bed\\double-bed\\double-bed1154.jpg"
        string_val: "D:\\TensorFlowDev\\PythonWorksp\\TensorFlow\\furniture\\bed\\double-bed\\double-bed1155.jpg"
        string_val: "D:\\TensorFlowDev\\PythonWorksp\\TensorFlow\\furniture\\bed\\double-bed\\double-bed1156.jpg"
        string_val: "D:\\TensorFlowDev\\PythonWorksp\\TensorFlow\\furniture\\bed\\double-bed\\double-bed1157.jpg"
        string_val: "D:\\TensorFlowDev\\PythonWorksp\\TensorFlow\\furniture\\bed\\double-bed\\double-bed1158.jpg"
        string_val: "D:\\TensorFlowDev\\PythonWorksp\\TensorFlow\\furniture\\bed\\double-bed\\double-bed1159.jpg"
        string_val: "D:\\TensorFlowDev\\PythonWorksp\\TensorFlow\\furniture\\bed\\double-bed\\double-bed1160.jpg"
        string_val: "D:\\TensorFlowDev\\PythonWorksp\\TensorFlow\\furniture\\bed\\double-bed\\double-bed1161.jpg"
        string_val: "D:\\TensorFlowDev\\PythonWorksp\\TensorFlow\\furniture\\bed\\double-bed\\double-bed1162.jpg"
        string_val: "D:\\TensorFlowDev\\PythonWorksp\\TensorFlow\\furniture\\bed\\double-bed\\double-bed1163.jpg"
        string_val: "D:\\TensorFlowDev\\PythonWorksp\\TensorFlow\\furniture\\bed\\double-bed\\double-bed1164.jpg"
        string_val: "D:\\TensorFlowDev\\PythonWorksp\\TensorFlow\\furniture\\bed\\double-bed\\double-bed1165.jpg"
        string_val: "D:\\TensorFlowDev\\PythonWorksp\\TensorFlow\\furniture\\bed\\double-bed\\double-bed1166.jpg"
        string_val: "D:\\TensorFlowDev\\PythonWorksp\\TensorFlow\\furniture\\bed\\double-bed\\double-bed1167.jpg"
        string_val: "D:\\TensorFlowDev\\PythonWorksp\\TensorFlow\\furniture\\bed\\double-bed\\double-bed1168.jpg"
        string_val: "D:\\TensorFlowDev\\PythonWorksp\\TensorFlow\\furniture\\bed\\double-bed\\double-bed1169.jpg"
        string_val: "D:\\TensorFlowDev\\PythonWorksp\\TensorFlow\\furniture\\bed\\double-bed\\double-bed1170.jpg"
        string_val: "D:\\TensorFlowDev\\PythonWorksp\\TensorFlow\\furniture\\bed\\double-bed\\double-bed1171.jpg"
        string_val: "D:\\TensorFlowDev\\PythonWorksp\\TensorFlow\\furniture\\bed\\double-bed\\double-bed1172.jpg"
        string_val: "D:\\TensorFlowDev\\PythonWorksp\\TensorFlow\\furniture\\bed\\double-bed\\double-bed1173.jpg"
        string_val: "D:\\TensorFlowDev\\PythonWorksp\\TensorFlow\\furniture\\bed\\double-bed\\double-bed1174.jpg"
        string_val: "D:\\TensorFlowDev\\PythonWorksp\\TensorFlow\\furniture\\bed\\double-bed\\double-bed1175.jpg"
        string_val: "D:\\TensorFlowDev\\PythonWorksp\\TensorFlow\\furniture\\bed\\double-bed\\double-bed1176.jpg"
        string_val: "D:\\TensorFlowDev\\PythonWorksp\\TensorFlow\\furniture\\bed\\double-bed\\double-bed1177.jpg"
        string_val: "D:\\TensorFlowDev\\PythonWorksp\\TensorFlow\\furniture\\bed\\double-bed\\double-bed1178.jpg"
        string_val: "D:\\TensorFlowDev\\PythonWorksp\\TensorFlow\\furniture\\bed\\double-bed\\double-bed1179.jpg"
        string_val: "D:\\TensorFlowDev\\PythonWorksp\\TensorFlow\\furniture\\bed\\double-bed\\double-bed1180.jpg"
        string_val: "D:\\TensorFlowDev\\PythonWorksp\\TensorFlow\\furniture\\bed\\double-bed\\double-bed1181.jpg"
        string_val: "D:\\TensorFlowDev\\PythonWorksp\\TensorFlow\\furniture\\bed\\double-bed\\double-bed1182.jpg"
        string_val: "D:\\TensorFlowDev\\PythonWorksp\\TensorFlow\\furniture\\bed\\double-bed\\double-bed1183.jpg"
        string_val: "D:\\TensorFlowDev\\PythonWorksp\\TensorFlow\\furniture\\bed\\double-bed\\double-bed1184.jpg"
        string_val: "D:\\TensorFlowDev\\PythonWorksp\\TensorFlow\\furniture\\bed\\double-bed\\double-bed1185.jpg"
        string_val: "D:\\TensorFlowDev\\PythonWorksp\\TensorFlow\\furniture\\bed\\double-bed\\double-bed1186.jpg"
        string_val: "D:\\TensorFlowDev\\PythonWorksp\\TensorFlow\\furniture\\bed\\double-bed\\double-bed1187.jpg"
        string_val: "D:\\TensorFlowDev\\PythonWorksp\\TensorFlow\\furniture\\bed\\double-bed\\double-bed1188.jpg"
        string_val: "D:\\TensorFlowDev\\PythonWorksp\\TensorFlow\\furniture\\bed\\double-bed\\double-bed1189.jpg"
        string_val: "D:\\TensorFlowDev\\PythonWorksp\\TensorFlow\\furniture\\bed\\double-bed\\double-bed1190.jpg"
        string_val: "D:\\TensorFlowDev\\PythonWorksp\\TensorFlow\\furniture\\bed\\double-bed\\double-bed1191.jpg"
        string_val: "D:\\TensorFlowDev\\PythonWorksp\\TensorFlow\\furniture\\bed\\double-bed\\double-bed1192.jpg"
        string_val: "D:\\TensorFlowDev\\PythonWorksp\\TensorFlow\\furniture\\bed\\double-bed\\double-bed1193.jpg"
        string_val: "D:\\TensorFlowDev\\PythonWorksp\\TensorFlow\\furniture\\bed\\double-bed\\double-bed1194.jpg"
        string_val: "D:\\TensorFlowDev\\PythonWorksp\\TensorFlow\\furniture\\bed\\double-bed\\double-bed1195.jpg"
        string_val: "D:\\TensorFlowDev\\PythonWorksp\\TensorFlow\\furniture\\bed\\double-bed\\double-bed1196.jpg"
        string_val: "D:\\TensorFlowDev\\PythonWorksp\\TensorFlow\\furniture\\bed\\double-bed\\double-bed1197.jpg"
        string_val: "D:\\TensorFlowDev\\PythonWorksp\\TensorFlow\\furniture\\bed\\double-bed\\double-bed1198.jpg"
        string_val: "D:\\TensorFlowDev\\PythonWorksp\\TensorFlow\\furniture\\bed\\double-bed\\double-bed1199.jpg"
        string_val: "D:\\TensorFlowDev\\PythonWorksp\\TensorFlow\\furniture\\bed\\double-bed\\double-bed1200.jpg"
        string_val: "D:\\TensorFlowDev\\PythonWorksp\\TensorFlow\\furniture\\bed\\double-bed\\double-bed1201.jpg"
        string_val: "D:\\TensorFlowDev\\PythonWorksp\\TensorFlow\\furniture\\bed\\double-bed\\double-bed1202.jpg"
        string_val: "D:\\TensorFlowDev\\PythonWorksp\\TensorFlow\\furniture\\bed\\double-bed\\double-bed1203.jpg"
        string_val: "D:\\TensorFlowDev\\PythonWorksp\\TensorFlow\\furniture\\bed\\double-bed\\double-bed1204.jpg"
        string_val: "D:\\TensorFlowDev\\PythonWorksp\\TensorFlow\\furniture\\bed\\double-bed\\double-bed1205.jpg"
        string_val: "D:\\TensorFlowDev\\PythonWorksp\\TensorFlow\\furniture\\bed\\double-bed\\double-bed1206.jpg"
        string_val: "D:\\TensorFlowDev\\PythonWorksp\\TensorFlow\\furniture\\bed\\double-bed\\double-bed1207.jpg"
        string_val: "D:\\TensorFlowDev\\PythonWorksp\\TensorFlow\\furniture\\bed\\double-bed\\double-bed1208.jpg"
        string_val: "D:\\TensorFlowDev\\PythonWorksp\\TensorFlow\\furniture\\bed\\double-bed\\double-bed1209.jpg"
        string_val: "D:\\TensorFlowDev\\PythonWorksp\\TensorFlow\\furniture\\bed\\double-bed\\double-bed1210.jpg"
        string_val: "D:\\TensorFlowDev\\PythonWorksp\\TensorFlow\\furniture\\bed\\double-bed\\double-bed1211.jpg"
        string_val: "D:\\TensorFlowDev\\PythonWorksp\\TensorFlow\\furniture\\bed\\double-bed\\double-bed1212.jpg"
        string_val: "D:\\TensorFlowDev\\PythonWorksp\\TensorFlow\\furniture\\bed\\double-bed\\double-bed1213.jpg"
        string_val: "D:\\TensorFlowDev\\PythonWorksp\\TensorFlow\\furniture\\bed\\double-bed\\double-bed1214.jpg"
        string_val: "D:\\TensorFlowDev\\PythonWorksp\\TensorFlow\\furniture\\bed\\double-bed\\double-bed1215.jpg"
        string_val: "D:\\TensorFlowDev\\PythonWorksp\\TensorFlow\\furniture\\bed\\double-bed\\double-bed1216.jpg"
        string_val: "D:\\TensorFlowDev\\PythonWorksp\\TensorFlow\\furniture\\bed\\double-bed\\double-bed1217.jpg"
        string_val: "D:\\TensorFlowDev\\PythonWorksp\\TensorFlow\\furniture\\bed\\double-bed\\double-bed1218.jpg"
        string_val: "D:\\TensorFlowDev\\PythonWorksp\\TensorFlow\\furniture\\bed\\double-bed\\double-bed1219.jpg"
        string_val: "D:\\TensorFlowDev\\PythonWorksp\\TensorFlow\\furniture\\bed\\double-bed\\double-bed1220.jpg"
        string_val: "D:\\TensorFlowDev\\PythonWorksp\\TensorFlow\\furniture\\bed\\double-bed\\double-bed1221.jpg"
        string_val: "D:\\TensorFlowDev\\PythonWorksp\\TensorFlow\\furniture\\bed\\double-bed\\double-bed1222.jpg"
        string_val: "D:\\TensorFlowDev\\PythonWorksp\\TensorFlow\\furniture\\bed\\double-bed\\double-bed1223.jpg"
        string_val: "D:\\TensorFlowDev\\PythonWorksp\\TensorFlow\\furniture\\bed\\double-bed\\double-bed1224.jpg"
        string_val: "D:\\TensorFlowDev\\PythonWorksp\\TensorFlow\\furniture\\bed\\double-bed\\double-bed1225.jpg"
        string_val: "D:\\TensorFlowDev\\PythonWorksp\\TensorFlow\\furniture\\bed\\double-bed\\double-bed1226.jpg"
        string_val: "D:\\TensorFlowDev\\PythonWorksp\\TensorFlow\\furniture\\bed\\double-bed\\double-bed1227.jpg"
        string_val: "D:\\TensorFlowDev\\PythonWorksp\\TensorFlow\\furniture\\bed\\double-bed\\double-bed1228.jpg"
        string_val: "D:\\TensorFlowDev\\PythonWorksp\\TensorFlow\\furniture\\bed\\double-bed\\double-bed1229.jpg"
        string_val: "D:\\TensorFlowDev\\PythonWorksp\\TensorFlow\\furniture\\bed\\double-bed\\double-bed1230.jpg"
        string_val: "D:\\TensorFlowDev\\PythonWorksp\\TensorFlow\\furniture\\bed\\double-bed\\double-bed1231.jpg"
        string_val: "D:\\TensorFlowDev\\PythonWorksp\\TensorFlow\\furniture\\bed\\double-bed\\double-bed1232.jpg"
        string_val: "D:\\TensorFlowDev\\PythonWorksp\\TensorFlow\\furniture\\bed\\double-bed\\double-bed1233.jpg"
        string_val: "D:\\TensorFlowDev\\PythonWorksp\\TensorFlow\\furniture\\bed\\double-bed\\double-bed1234.jpg"
        string_val: "D:\\TensorFlowDev\\PythonWorksp\\TensorFlow\\furniture\\bed\\double-bed\\double-bed1235.jpg"
        string_val: "D:\\TensorFlowDev\\PythonWorksp\\TensorFlow\\furniture\\bed\\double-bed\\double-bed1236.jpg"
        string_val: "D:\\TensorFlowDev\\PythonWorksp\\TensorFlow\\furniture\\bed\\double-bed\\double-bed1237.jpg"
        string_val: "D:\\TensorFlowDev\\PythonWorksp\\TensorFlow\\furniture\\bed\\double-bed\\double-bed1238.jpg"
        string_val: "D:\\TensorFlowDev\\PythonWorksp\\TensorFlow\\furniture\\bed\\double-bed\\double-bed1239.jpg"
        string_val: "D:\\TensorFlowDev\\PythonWorksp\\TensorFlow\\furniture\\bed\\double-bed\\double-bed1240.jpg"
        string_val: "D:\\TensorFlowDev\\PythonWorksp\\TensorFlow\\furniture\\bed\\double-bed\\double-bed1241.jpg"
        string_val: "D:\\TensorFlowDev\\PythonWorksp\\TensorFlow\\furniture\\bed\\double-bed\\double-bed1242.jpg"
        string_val: "D:\\TensorFlowDev\\PythonWorksp\\TensorFlow\\furniture\\bed\\double-bed\\double-bed1243.jpg"
        string_val: "D:\\TensorFlowDev\\PythonWorksp\\TensorFlow\\furniture\\bed\\double-bed\\double-bed1244.jpg"
        string_val: "D:\\TensorFlowDev\\PythonWorksp\\TensorFlow\\furniture\\bed\\double-bed\\double-bed1245.jpg"
        string_val: "D:\\TensorFlowDev\\PythonWorksp\\TensorFlow\\furniture\\bed\\double-bed\\double-bed1246.jpg"
        string_val: "D:\\TensorFlowDev\\PythonWorksp\\TensorFlow\\furniture\\bed\\double-bed\\double-bed1247.jpg"
        string_val: "D:\\TensorFlowDev\\PythonWorksp\\TensorFlow\\furniture\\bed\\double-bed\\double-bed1248.jpg"
        string_val: "D:\\TensorFlowDev\\PythonWorksp\\TensorFlow\\furniture\\bed\\double-bed\\double-bed1249.jpg"
        string_val: "D:\\TensorFlowDev\\PythonWorksp\\TensorFlow\\furniture\\bed\\double-bed\\double-bed1250.jpg"
        string_val: "D:\\TensorFlowDev\\PythonWorksp\\TensorFlow\\furniture\\bed\\double-bed\\double-bed1251.jpg"
        string_val: "D:\\TensorFlowDev\\PythonWorksp\\TensorFlow\\furniture\\bed\\double-bed\\double-bed1252.jpg"
        string_val: "D:\\TensorFlowDev\\PythonWorksp\\TensorFlow\\furniture\\bed\\double-bed\\double-bed1253.jpg"
        string_val: "D:\\TensorFlowDev\\PythonWorksp\\TensorFlow\\furniture\\bed\\double-bed\\double-bed1254.jpg"
        string_val: "D:\\TensorFlowDev\\PythonWorksp\\TensorFlow\\furniture\\bed\\double-bed\\double-bed1255.jpg"
        string_val: "D:\\TensorFlowDev\\PythonWorksp\\TensorFlow\\furniture\\bed\\double-bed\\double-bed1256.jpg"
        string_val: "D:\\TensorFlowDev\\PythonWorksp\\TensorFlow\\furniture\\bed\\double-bed\\double-bed1257.jpg"
        string_val: "D:\\TensorFlowDev\\PythonWorksp\\TensorFlow\\furniture\\bed\\double-bed\\double-bed1258.jpg"
        string_val: "D:\\TensorFlowDev\\PythonWorksp\\TensorFlow\\furniture\\bed\\double-bed\\double-bed1259.jpg"
        string_val: "D:\\TensorFlowDev\\PythonWorksp\\TensorFlow\\furniture\\bed\\double-bed\\double-bed1260.jpg"
        string_val: "D:\\TensorFlowDev\\PythonWorksp\\TensorFlow\\furniture\\bed\\double-bed\\double-bed1261.jpg"
        string_val: "D:\\TensorFlowDev\\PythonWorksp\\TensorFlow\\furniture\\bed\\double-bed\\double-bed1262.jpg"
        string_val: "D:\\TensorFlowDev\\PythonWorksp\\TensorFlow\\furniture\\bed\\double-bed\\double-bed1263.jpg"
        string_val: "D:\\TensorFlowDev\\PythonWorksp\\TensorFlow\\furniture\\bed\\double-bed\\double-bed1264.jpg"
        string_val: "D:\\TensorFlowDev\\PythonWorksp\\TensorFlow\\furniture\\bed\\double-bed\\double-bed1265.jpg"
        string_val: "D:\\TensorFlowDev\\PythonWorksp\\TensorFlow\\furniture\\bed\\double-bed\\double-bed1266.jpg"
        string_val: "D:\\TensorFlowDev\\PythonWorksp\\TensorFlow\\furniture\\bed\\double-bed\\double-bed1267.jpg"
        string_val: "D:\\TensorFlowDev\\PythonWorksp\\TensorFlow\\furniture\\bed\\double-bed\\double-bed1268.jpg"
        string_val: "D:\\TensorFlowDev\\PythonWorksp\\TensorFlow\\furniture\\bed\\double-bed\\double-bed1269.jpg"
        string_val: "D:\\TensorFlowDev\\PythonWorksp\\TensorFlow\\furniture\\bed\\double-bed\\double-bed1270.jpg"
        string_val: "D:\\TensorFlowDev\\PythonWorksp\\TensorFlow\\furniture\\bed\\double-bed\\double-bed1271.jpg"
        string_val: "D:\\TensorFlowDev\\PythonWorksp\\TensorFlow\\furniture\\bed\\double-bed\\double-bed1272.jpg"
        string_val: "D:\\TensorFlowDev\\PythonWorksp\\TensorFlow\\furniture\\bed\\double-bed\\double-bed1273.jpg"
        string_val: "D:\\TensorFlowDev\\PythonWorksp\\TensorFlow\\furniture\\bed\\double-bed\\double-bed1274.jpg"
        string_val: "D:\\TensorFlowDev\\PythonWorksp\\TensorFlow\\furniture\\bed\\double-bed\\double-bed1275.jpg"
        string_val: "D:\\TensorFlowDev\\PythonWorksp\\TensorFlow\\furniture\\bed\\double-bed\\double-bed1276.jpg"
        string_val: "D:\\TensorFlowDev\\PythonWorksp\\TensorFlow\\furniture\\bed\\double-bed\\double-bed1277.jpg"
        string_val: "D:\\TensorFlowDev\\PythonWorksp\\TensorFlow\\furniture\\bed\\double-bed\\double-bed1278.jpg"
        string_val: "D:\\TensorFlowDev\\PythonWorksp\\TensorFlow\\furniture\\bed\\double-bed\\double-bed1279.jpg"
        string_val: "D:\\TensorFlowDev\\PythonWorksp\\TensorFlow\\furniture\\bed\\double-bed\\double-bed1280.jpg"
        string_val: "D:\\TensorFlowDev\\PythonWorksp\\TensorFlow\\furniture\\bed\\double-bed\\double-bed1281.jpg"
        string_val: "D:\\TensorFlowDev\\PythonWorksp\\TensorFlow\\furniture\\bed\\double-bed\\double-bed1282.jpg"
        string_val: "D:\\TensorFlowDev\\PythonWorksp\\TensorFlow\\furniture\\bed\\double-bed\\double-bed1283.jpg"
        string_val: "D:\\TensorFlowDev\\PythonWorksp\\TensorFlow\\furniture\\bed\\double-bed\\double-bed1284.jpg"
        string_val: "D:\\TensorFlowDev\\PythonWorksp\\TensorFlow\\furniture\\bed\\double-bed\\double-bed1285.jpg"
        string_val: "D:\\TensorFlowDev\\PythonWorksp\\TensorFlow\\furniture\\bed\\double-bed\\double-bed1286.jpg"
        string_val: "D:\\TensorFlowDev\\PythonWorksp\\TensorFlow\\furniture\\bed\\double-bed\\double-bed1287.jpg"
        string_val: "D:\\TensorFlowDev\\PythonWorksp\\TensorFlow\\furniture\\bed\\double-bed\\double-bed1288.jpg"
        string_val: "D:\\TensorFlowDev\\PythonWorksp\\TensorFlow\\furniture\\bed\\double-bed\\double-bed1289.jpg"
        string_val: "D:\\TensorFlowDev\\PythonWorksp\\TensorFlow\\furniture\\bed\\double-bed\\double-bed1290.jpg"
        string_val: "D:\\TensorFlowDev\\PythonWorksp\\TensorFlow\\furniture\\bed\\double-bed\\double-bed1291.jpg"
        string_val: "D:\\TensorFlowDev\\PythonWorksp\\TensorFlow\\furniture\\bed\\double-bed\\double-bed1292.jpg"
        string_val: "D:\\TensorFlowDev\\PythonWorksp\\TensorFlow\\furniture\\bed\\double-bed\\double-bed1293.jpg"
        string_val: "D:\\TensorFlowDev\\PythonWorksp\\TensorFlow\\furniture\\bed\\double-bed\\double-bed1294.jpg"
        string_val: "D:\\TensorFlowDev\\PythonWorksp\\TensorFlow\\furniture\\bed\\double-bed\\double-bed1295.jpg"
        string_val: "D:\\TensorFlowDev\\PythonWorksp\\TensorFlow\\furniture\\bed\\double-bed\\double-bed1296.jpg"
        string_val: "D:\\TensorFlowDev\\PythonWorksp\\TensorFlow\\furniture\\bed\\double-bed\\double-bed1297.jpg"
        string_val: "D:\\TensorFlowDev\\PythonWorksp\\TensorFlow\\furniture\\bed\\double-bed\\double-bed1298.jpg"
        string_val: "D:\\TensorFlowDev\\PythonWorksp\\TensorFlow\\furniture\\bed\\double-bed\\double-bed1299.jpg"
        string_val: "D:\\TensorFlowDev\\PythonWorksp\\TensorFlow\\furniture\\bed\\double-bed\\double-bed1300.jpg"
        string_val: "D:\\TensorFlowDev\\PythonWorksp\\TensorFlow\\furniture\\bed\\double-bed\\double-bed1301.jpg"
        string_val: "D:\\TensorFlowDev\\PythonWorksp\\TensorFlow\\furniture\\bed\\double-bed\\double-bed1302.jpg"
        string_val: "D:\\TensorFlowDev\\PythonWorksp\\TensorFlow\\furniture\\bed\\double-bed\\double-bed1303.jpg"
        string_val: "D:\\TensorFlowDev\\PythonWorksp\\TensorFlow\\furniture\\bed\\double-bed\\double-bed1304.jpg"
        string_val: "D:\\TensorFlowDev\\PythonWorksp\\TensorFlow\\furniture\\bed\\double-bed\\double-bed1305.jpg"
        string_val: "D:\\TensorFlowDev\\PythonWorksp\\TensorFlow\\furniture\\bed\\double-bed\\double-bed1306.jpg"
        string_val: "D:\\TensorFlowDev\\PythonWorksp\\TensorFlow\\furniture\\bed\\double-bed\\double-bed1307.jpg"
        string_val: "D:\\TensorFlowDev\\PythonWorksp\\TensorFlow\\furniture\\bed\\double-bed\\double-bed1308.jpg"
        string_val: "D:\\TensorFlowDev\\PythonWorksp\\TensorFlow\\furniture\\bed\\double-bed\\double-bed1309.jpg"
        string_val: "D:\\TensorFlowDev\\PythonWorksp\\TensorFlow\\furniture\\bed\\double-bed\\double-bed1310.jpg"
        string_val: "D:\\TensorFlowDev\\PythonWorksp\\TensorFlow\\furniture\\bed\\double-bed\\double-bed1311.jpg"
        string_val: "D:\\TensorFlowDev\\PythonWorksp\\TensorFlow\\furniture\\bed\\double-bed\\double-bed1312.jpg"
        string_val: "D:\\TensorFlowDev\\PythonWorksp\\TensorFlow\\furniture\\bed\\double-bed\\double-bed1313.jpg"
        string_val: "D:\\TensorFlowDev\\PythonWorksp\\TensorFlow\\furniture\\bed\\double-bed\\double-bed1314.jpg"
        string_val: "D:\\TensorFlowDev\\PythonWorksp\\TensorFlow\\furniture\\bed\\double-bed\\double-bed1315.jpg"
        string_val: "D:\\TensorFlowDev\\PythonWorksp\\TensorFlow\\furniture\\bed\\double-bed\\double-bed1316.jpg"
        string_val: "D:\\TensorFlowDev\\PythonWorksp\\TensorFlow\\furniture\\bed\\double-bed\\double-bed1317.jpg"
        string_val: "D:\\TensorFlowDev\\PythonWorksp\\TensorFlow\\furniture\\bed\\double-bed\\double-bed1318.jpg"
        string_val: "D:\\TensorFlowDev\\PythonWorksp\\TensorFlow\\furniture\\bed\\double-bed\\double-bed1319.jpg"
        string_val: "D:\\TensorFlowDev\\PythonWorksp\\TensorFlow\\furniture\\bed\\double-bed\\double-bed1320.jpg"
        string_val: "D:\\TensorFlowDev\\PythonWorksp\\TensorFlow\\furniture\\bed\\double-bed\\double-bed1321.jpg"
        string_val: "D:\\TensorFlowDev\\PythonWorksp\\TensorFlow\\furniture\\bed\\double-bed\\double-bed1322.jpg"
        string_val: "D:\\TensorFlowDev\\PythonWorksp\\TensorFlow\\furniture\\bed\\double-bed\\double-bed1323.jpg"
        string_val: "D:\\TensorFlowDev\\PythonWorksp\\TensorFlow\\furniture\\bed\\double-bed\\double-bed1324.jpg"
        string_val: "D:\\TensorFlowDev\\PythonWorksp\\TensorFlow\\furniture\\bed\\double-bed\\double-bed1325.jpg"
        string_val: "D:\\TensorFlowDev\\PythonWorksp\\TensorFlow\\furniture\\bed\\double-bed\\double-bed1326.jpg"
        string_val: "D:\\TensorFlowDev\\PythonWorksp\\TensorFlow\\furniture\\bed\\double-bed\\double-bed1327.jpg"
        string_val: "D:\\TensorFlowDev\\PythonWorksp\\TensorFlow\\furniture\\bed\\double-bed\\double-bed1328.jpg"
        string_val: "D:\\TensorFlowDev\\PythonWorksp\\TensorFlow\\furniture\\bed\\double-bed\\double-bed1329.jpg"
        string_val: "D:\\TensorFlowDev\\PythonWorksp\\TensorFlow\\furniture\\bed\\double-bed\\double-bed1330.jpg"
        string_val: "D:\\TensorFlowDev\\PythonWorksp\\TensorFlow\\furniture\\bed\\double-bed\\double-bed1331.jpg"
        string_val: "D:\\TensorFlowDev\\PythonWorksp\\TensorFlow\\furniture\\bed\\double-bed\\double-bed1332.jpg"
        string_val: "D:\\TensorFlowDev\\PythonWorksp\\TensorFlow\\furniture\\bed\\double-bed\\double-bed1333.jpg"
        string_val: "D:\\TensorFlowDev\\PythonWorksp\\TensorFlow\\furniture\\bed\\double-bed\\double-bed1334.jpg"
        string_val: "D:\\TensorFlowDev\\PythonWorksp\\TensorFlow\\furniture\\bed\\double-bed\\double-bed1335.jpg"
        string_val: "D:\\TensorFlowDev\\PythonWorksp\\TensorFlow\\furniture\\bed\\double-bed\\double-bed1336.jpg"
        string_val: "D:\\TensorFlowDev\\PythonWorksp\\TensorFlow\\furniture\\bed\\double-bed\\double-bed1337.jpg"
        string_val: "D:\\TensorFlowDev\\PythonWorksp\\TensorFlow\\furniture\\bed\\double-bed\\double-bed1338.jpg"
…
        }
      }
    }
  }
  attr {
    key: "dtypes"
    value {
      list {
        type: DT_FLOAT
      }
    }
  }
}
node {
  name: "save/Assign_4"
  op: "Assign"
  input: "local3/weight_loss/avg"
  input: "save/RestoreV2_4"
  attr {
    key: "T"
    value {
      type: DT_FLOAT
    }
  }
  attr {
    key: "_class"
    value {
      list {
        s: "loc:@local3/weight_loss/avg"
      }
    }
  }
  attr {
    key: "_output_shapes"
    value {
      list {
        shape {
        }
      }
    }
  }
  attr {
    key: "use_locking"
    value {
      b: true
    }
  }
  attr {
    key: "validate_shape"
    value {
      b: true
    }
  }
}
node {
  name: "save/RestoreV2_5/tensor_names"
  op: "Const"
  attr {
    key: "_output_shapes"
    value {
      list {
        shape {
          dim {
            size: 1
          }
        }
      }
    }
  }
  attr {
    key: "dtype"
    value {
      type: DT_STRING
    }
  }
  attr {
    key: "value"
    value {
      tensor {
        dtype: DT_STRING
        tensor_shape {
          dim {
            size: 1
          }
        }
        string_val: "local4/weight_loss/avg"
      }
    }
  }
}
node {
  name: "save/RestoreV2_5/shape_and_slices"
  op: "Const"
  attr {
    key: "_output_shapes"
    value {
      list {
        shape {
          dim {
            size: 1
          }
        }
      }
    }
  }
  attr {
    key: "dtype"
    value {
      type: DT_STRING
    }
  }
  attr {
    key: "value"
    value {
      tensor {
        dtype: DT_STRING
        tensor_shape {
          dim {
            size: 1
          }
        }
        string_val: ""
      }
    }
  }
}
node {
  name: "save/RestoreV2_5"
  op: "RestoreV2"
  input: "save/Const"
  input: "save/RestoreV2_5/tensor_names"
  input: "save/RestoreV2_5/shape_and_slices"
  attr {
    key: "_output_shapes"
    value {
      list {
        shape {
          unknown_rank: true
        }
      }
    }
  }
  attr {
    key: "dtypes"
    value {
      list {
        type: DT_FLOAT
      }
    }
  }
}
node {
  name: "save/Assign_5"
  op: "Assign"
  input: "local4/weight_loss/avg"
  input: "save/RestoreV2_5"
  attr {
    key: "T"
    value {
      type: DT_FLOAT
    }
  }
  attr {
    key: "_class"
    value {
      list {
        s: "loc:@local4/weight_loss/avg"
      }
    }
  }
  attr {
    key: "_output_shapes"
    value {
      list {
        shape {
        }
      }
    }
  }
  attr {
    key: "use_locking"
    value {
      b: true
    }
  }
  attr {
    key: "validate_shape"
    value {
      b: true
    }
  }
}
node {
  name: "save/RestoreV2_6/tensor_names"
  op: "Const"
  attr {
    key: "_output_shapes"
    value {
      list {
        shape {
          dim {
            size: 1
          }
        }
      }
    }
  }
  attr {
    key: "dtype"
    value {
      type: DT_STRING
    }
  }
  attr {
    key: "value"
    value {
      tensor {
        dtype: DT_STRING
        tensor_shape {
          dim {
            size: 1
          }
        }
        string_val: "softmax_linear/weight_loss/avg"
      }
    }
  }
}
node {
  name: "save/RestoreV2_6/shape_and_slices"
  op: "Const"
  attr {
    key: "_output_shapes"
    value {
      list {
        shape {
          dim {
            size: 1
          }
        }
      }
    }
  }
  attr {
    key: "dtype"
    value {
      type: DT_STRING
    }
  }
  attr {
    key: "value"
    value {
      tensor {
        dtype: DT_STRING
        tensor_shape {
          dim {
            size: 1
          }
        }
        string_val: ""
      }
    }
  }
}
node {
  name: "save/RestoreV2_6"
  op: "RestoreV2"
  input: "save/Const"
  input: "save/RestoreV2_6/tensor_names"
  input: "save/RestoreV2_6/shape_and_slices"
  attr {
    key: "_output_shapes"
    value {
      list {
        shape {
          unknown_rank: true
        }
      }
    }
  }
  attr {
    key: "dtypes"
    value {
      list {
        type: DT_FLOAT
      }
    }
  }
}
node {
  name: "save/Assign_6"
  op: "Assign"
  input: "softmax_linear/weight_loss/avg"
  input: "save/RestoreV2_6"
  attr {
    key: "T"
    value {
      type: DT_FLOAT
    }
  }
  attr {
    key: "_class"
    value {
      list {
        s: "loc:@softmax_linear/weight_loss/avg"
      }
    }
  }
  attr {
    key: "_output_shapes"
    value {
      list {
        shape {
        }
      }
    }
  }
  attr {
    key: "use_locking"
    value {
      b: true
    }
  }
  attr {
    key: "validate_shape"
    value {
      b: true
    }
  }
}
node {
  name: "save/RestoreV2_7/tensor_names"
  op: "Const"
  attr {
    key: "_output_shapes"
    value {
      list {
        shape {
          dim {
            size: 1
          }
        }
      }
    }
  }
  attr {
    key: "dtype"
    value {
      type: DT_STRING
    }
  }
  attr {
    key: "value"
    value {
      tensor {
        dtype: DT_STRING
        tensor_shape {
          dim {
            size: 1
          }
        }
        string_val: "total_loss/avg"
      }
    }
  }
}
node {
  name: "save/RestoreV2_7/shape_and_slices"
  op: "Const"
  attr {
    key: "_output_shapes"
    value {
      list {
        shape {
          dim {
            size: 1
          }
        }
      }
    }
  }
  attr {
    key: "dtype"
    value {
      type: DT_STRING
    }
  }
  attr {
    key: "value"
    value {
      tensor {
        dtype: DT_STRING
        tensor_shape {
          dim {
            size: 1
          }
        }
        string_val: ""
      }
    }
  }
}
node {
  name: "save/RestoreV2_7"
  op: "RestoreV2"
  input: "save/Const"
  input: "save/RestoreV2_7/tensor_names"
  input: "save/RestoreV2_7/shape_and_slices"
  attr {
    key: "_output_shapes"
    value {
      list {
        shape {
          unknown_rank: true
        }
      }
    }
  }
  attr {
    key: "dtypes"
    value {
      list {
        type: DT_FLOAT
      }
    }
  }
}
node {
  name: "save/Assign_7"
  op: "Assign"
  input: "total_loss/avg"
  input: "save/RestoreV2_7"
  attr {
    key: "T"
    value {
      type: DT_FLOAT
    }
  }
  attr {
    key: "_class"
    value {
      list {
        s: "loc:@total_loss/avg"
      }
    }
  }
  attr {
    key: "_output_shapes"
    value {
      list {
        shape {
        }
      }
    }
  }
  attr {
    key: "use_locking"
    value {
      b: true
    }
  }
  attr {
    key: "validate_shape"
    value {
      b: true
    }
  }
}
node {
  name: "save/restore_shard"
  op: "NoOp"
  input: "^save/Assign"
  input: "^save/Assign_1"
  input: "^save/Assign_2"
  input: "^save/Assign_3"
  input: "^save/Assign_4"
  input: "^save/Assign_5"
  input: "^save/Assign_6"
  input: "^save/Assign_7"
}
node {
  name: "save/RestoreV2_8/tensor_names"
  op: "Const"
  device: "/device:CPU:0"
  attr {
    key: "_output_shapes"
    value {
      list {
        shape {
          dim {
            size: 1
          }
        }
      }
    }
  }
  attr {
    key: "dtype"
    value {
      type: DT_STRING
    }
  }
  attr {
    key: "value"
    value {
      tensor {
        dtype: DT_STRING
        tensor_shape {
          dim {
            size: 1
          }
        }
        string_val: "conv1/biases"
      }
    }
  }
}
node {
  name: "save/RestoreV2_8/shape_and_slices"
  op: "Const"
  device: "/device:CPU:0"
  attr {
    key: "_output_shapes"
    value {
      list {
        shape {
          dim {
            size: 1
          }
        }
      }
    }
  }
  attr {
    key: "dtype"
    value {
      type: DT_STRING
    }
  }
  attr {
    key: "value"
    value {
      tensor {
        dtype: DT_STRING
        tensor_shape {
          dim {
            size: 1
          }
        }
        string_val: ""
      }
    }
  }
}
node {
  name: "save/RestoreV2_8"
  op: "RestoreV2"
  input: "save/Const"
  input: "save/RestoreV2_8/tensor_names"
  input: "save/RestoreV2_8/shape_and_slices"
  device: "/device:CPU:0"
  attr {
    key: "_output_shapes"
    value {
      list {
        shape {
          unknown_rank: true
        }
      }
    }
  }
  attr {
    key: "dtypes"
    value {
      list {
        type: DT_FLOAT
      }
    }
  }
}
node {
  name: "save/Assign_8"
  op: "Assign"
  input: "conv1/biases"
  input: "save/RestoreV2_8"
  device: "/device:CPU:0"
  attr {
    key: "T"
    value {
      type: DT_FLOAT
    }
  }
  attr {
    key: "_class"
    value {
      list {
        s: "loc:@conv1/biases"
      }
    }
  }
  attr {
    key: "_output_shapes"
    value {
      list {
        shape {
          dim {
            size: 64
          }
        }
      }
    }
  }
  attr {
    key: "use_locking"
    value {
      b: true
    }
  }
  attr {
    key: "validate_shape"
    value {
      b: true
    }
  }
}
node {
  name: "save/RestoreV2_9/tensor_names"
  op: "Const"
  device: "/device:CPU:0"
  attr {
    key: "_output_shapes"
    value {
      list {
        shape {
          dim {
            size: 1
          }
        }
      }
    }
  }
  attr {
    key: "dtype"
    value {
      type: DT_STRING
    }
  }
  attr {
    key: "value"
    value {
      tensor {
        dtype: DT_STRING
        tensor_shape {
          dim {
            size: 1
          }
        }
        string_val: "conv1/biases/ExponentialMovingAverage"
      }
    }
  }
}
node {
  name: "save/RestoreV2_9/shape_and_slices"
  op: "Const"
  device: "/device:CPU:0"
  attr {
    key: "_output_shapes"
    value {
      list {
        shape {
          dim {
            size: 1
          }
        }
      }
    }
  }
  attr {
    key: "dtype"
    value {
      type: DT_STRING
    }
  }
  attr {
    key: "value"
    value {
      tensor {
        dtype: DT_STRING
        tensor_shape {
          dim {
            size: 1
          }
        }
        string_val: ""
      }
    }
  }
}
node {
  name: "save/RestoreV2_9"
  op: "RestoreV2"
  input: "save/Const"
  input: "save/RestoreV2_9/tensor_names"
  input: "save/RestoreV2_9/shape_and_slices"
  device: "/device:CPU:0"
  attr {
    key: "_output_shapes"
    value {
      list {
        shape {
          unknown_rank: true
        }
      }
    }
  }
  attr {
    key: "dtypes"
    value {
      list {
        type: DT_FLOAT
      }
    }
  }
}
node {
  name: "save/Assign_9"
  op: "Assign"
  input: "conv1/biases/ExponentialMovingAverage"
  input: "save/RestoreV2_9"
  device: "/device:CPU:0"
  attr {
    key: "T"
    value {
      type: DT_FLOAT
    }
  }
  attr {
    key: "_class"
    value {
      list {
        s: "loc:@conv1/biases"
      }
    }
  }
  attr {
    key: "_output_shapes"
    value {
      list {
        shape {
          dim {
            size: 64
          }
        }
      }
    }
  }
  attr {
    key: "use_locking"
    value {
      b: true
    }
  }
  attr {
    key: "validate_shape"
    value {
      b: true
    }
  }
}
node {
  name: "save/RestoreV2_10/tensor_names"
  op: "Const"
  device: "/device:CPU:0"
  attr {
    key: "_output_shapes"
    value {
      list {
        shape {
          dim {
            size: 1
          }
        }
      }
    }
  }
  attr {
    key: "dtype"
    value {
      type: DT_STRING
    }
  }
  attr {
    key: "value"
    value {
      tensor {
        dtype: DT_STRING
        tensor_shape {
          dim {
            size: 1
          }
        }
        string_val: "conv1/weights"
      }
    }
  }
}
node {
  name: "save/RestoreV2_10/shape_and_slices"
  op: "Const"
  device: "/device:CPU:0"
  attr {
    key: "_output_shapes"
    value {
      list {
        shape {
          dim {
            size: 1
          }
        }
      }
    }
  }
  attr {
    key: "dtype"
    value {
      type: DT_STRING
    }
  }
  attr {
    key: "value"
    value {
      tensor {
        dtype: DT_STRING
        tensor_shape {
          dim {
            size: 1
          }
        }
        string_val: ""
      }
    }
  }
}
node {
  name: "save/RestoreV2_10"
  op: "RestoreV2"
  input: "save/Const"
  input: "save/RestoreV2_10/tensor_names"
  input: "save/RestoreV2_10/shape_and_slices"
  device: "/device:CPU:0"
  attr {
    key: "_output_shapes"
    value {
      list {
        shape {
          unknown_rank: true
        }
      }
    }
  }
  attr {
    key: "dtypes"
    value {
      list {
        type: DT_FLOAT
      }
    }
  }
}
node {
  name: "save/Assign_10"
  op: "Assign"
  input: "conv1/weights"
  input: "save/RestoreV2_10"
  device: "/device:CPU:0"
  attr {
    key: "T"
    value {
      type: DT_FLOAT
    }
  }
  attr {
    key: "_class"
    value {
      list {
        s: "loc:@conv1/weights"
      }
    }
  }
  attr {
    key: "_output_shapes"
    value {
      list {
        shape {
          dim {
            size: 5
          }
          dim {
            size: 5
          }
          dim {
            size: 3
          }
          dim {
            size: 64
          }
        }
      }
    }
  }
  attr {
    key: "use_locking"
    value {
      b: true
    }
  }
  attr {
    key: "validate_shape"
    value {
      b: true
    }
  }
}
node {
  name: "save/RestoreV2_11/tensor_names"
  op: "Const"
  device: "/device:CPU:0"
  attr {
    key: "_output_shapes"
    value {
      list {
        shape {
          dim {
            size: 1
          }
        }
      }
    }
  }
  attr {
    key: "dtype"
    value {
      type: DT_STRING
    }
  }
  attr {
    key: "value"
    value {
      tensor {
        dtype: DT_STRING
        tensor_shape {
          dim {
            size: 1
          }
        }
        string_val: "conv1/weights/ExponentialMovingAverage"
      }
    }
  }
}
node {
  name: "save/RestoreV2_11/shape_and_slices"
  op: "Const"
  device: "/device:CPU:0"
  attr {
    key: "_output_shapes"
    value {
      list {
        shape {
          dim {
            size: 1
          }
        }
      }
    }
  }
  attr {
    key: "dtype"
    value {
      type: DT_STRING
    }
  }
  attr {
    key: "value"
    value {
      tensor {
        dtype: DT_STRING
        tensor_shape {
          dim {
            size: 1
          }
        }
        string_val: ""
      }
    }
  }
}
node {
  name: "save/RestoreV2_11"
  op: "RestoreV2"
  input: "save/Const"
  input: "save/RestoreV2_11/tensor_names"
  input: "save/RestoreV2_11/shape_and_slices"
  device: "/device:CPU:0"
  attr {
    key: "_output_shapes"
    value {
      list {
        shape {
          unknown_rank: true
        }
      }
    }
  }
  attr {
    key: "dtypes"
    value {
      list {
        type: DT_FLOAT
      }
    }
  }
}
node {
  name: "save/Assign_11"
  op: "Assign"
  input: "conv1/weights/ExponentialMovingAverage"
  input: "save/RestoreV2_11"
  device: "/device:CPU:0"
  attr {
    key: "T"
    value {
      type: DT_FLOAT
    }
  }
  attr {
    key: "_class"
    value {
      list {
        s: "loc:@conv1/weights"
      }
    }
  }
  attr {
    key: "_output_shapes"
    value {
      list {
        shape {
          dim {
            size: 5
          }
          dim {
            size: 5
          }
          dim {
            size: 3
          }
          dim {
            size: 64
          }
        }
      }
    }
  }
  attr {
    key: "use_locking"
    value {
      b: true
    }
  }
  attr {
    key: "validate_shape"
    value {
      b: true
    }
  }
}
node {
  name: "save/RestoreV2_12/tensor_names"
  op: "Const"
  device: "/device:CPU:0"
  attr {
    key: "_output_shapes"
    value {
      list {
        shape {
          dim {
            size: 1
          }
        }
      }
    }
  }
  attr {
    key: "dtype"
    value {
      type: DT_STRING
    }
  }
  attr {
    key: "value"
    value {
      tensor {
        dtype: DT_STRING
        tensor_shape {
          dim {
            size: 1
          }
        }
        string_val: "conv2/biases"
      }
    }
  }
}
node {
  name: "save/RestoreV2_12/shape_and_slices"
  op: "Const"
  device: "/device:CPU:0"
  attr {
    key: "_output_shapes"
    value {
      list {
        shape {
          dim {
            size: 1
          }
        }
      }
    }
  }
  attr {
    key: "dtype"
    value {
      type: DT_STRING
    }
  }
  attr {
    key: "value"
    value {
      tensor {
        dtype: DT_STRING
        tensor_shape {
          dim {
            size: 1
          }
        }
        string_val: ""
      }
    }
  }
}
node {
  name: "save/RestoreV2_12"
  op: "RestoreV2"
  input: "save/Const"
  input: "save/RestoreV2_12/tensor_names"
  input: "save/RestoreV2_12/shape_and_slices"
  device: "/device:CPU:0"
  attr {
    key: "_output_shapes"
    value {
      list {
        shape {
          unknown_rank: true
        }
      }
    }
  }
  attr {
    key: "dtypes"
    value {
      list {
        type: DT_FLOAT
      }
    }
  }
}
node {
  name: "save/Assign_12"
  op: "Assign"
  input: "conv2/biases"
  input: "save/RestoreV2_12"
  device: "/device:CPU:0"
  attr {
    key: "T"
    value {
      type: DT_FLOAT
    }
  }
  attr {
    key: "_class"
    value {
      list {
        s: "loc:@conv2/biases"
      }
    }
  }
  attr {
    key: "_output_shapes"
    value {
      list {
        shape {
          dim {
            size: 64
          }
        }
      }
    }
  }
  attr {
    key: "use_locking"
    value {
      b: true
    }
  }
  attr {
    key: "validate_shape"
    value {
      b: true
    }
  }
}
node {
  name: "save/RestoreV2_13/tensor_names"
  op: "Const"
  device: "/device:CPU:0"
  attr {
    key: "_output_shapes"
    value {
      list {
        shape {
          dim {
            size: 1
          }
        }
      }
    }
  }
  attr {
    key: "dtype"
    value {
      type: DT_STRING
    }
  }
  attr {
    key: "value"
    value {
      tensor {
        dtype: DT_STRING
        tensor_shape {
          dim {
            size: 1
          }
        }
        string_val: "conv2/biases/ExponentialMovingAverage"
      }
    }
  }
}
node {
  name: "save/RestoreV2_13/shape_and_slices"
  op: "Const"
  device: "/device:CPU:0"
  attr {
    key: "_output_shapes"
    value {
      list {
        shape {
          dim {
            size: 1
          }
        }
      }
    }
  }
  attr {
    key: "dtype"
    value {
      type: DT_STRING
    }
  }
  attr {
    key: "value"
    value {
      tensor {
        dtype: DT_STRING
        tensor_shape {
          dim {
            size: 1
          }
        }
        string_val: ""
      }
    }
  }
}
node {
  name: "save/RestoreV2_13"
  op: "RestoreV2"
  input: "save/Const"
  input: "save/RestoreV2_13/tensor_names"
  input: "save/RestoreV2_13/shape_and_slices"
  device: "/device:CPU:0"
  attr {
    key: "_output_shapes"
    value {
      list {
        shape {
          unknown_rank: true
        }
      }
    }
  }
  attr {
    key: "dtypes"
    value {
      list {
        type: DT_FLOAT
      }
    }
  }
}
node {
  name: "save/Assign_13"
  op: "Assign"
  input: "conv2/biases/ExponentialMovingAverage"
  input: "save/RestoreV2_13"
  device: "/device:CPU:0"
  attr {
    key: "T"
    value {
      type: DT_FLOAT
    }
  }
  attr {
    key: "_class"
    value {
      list {
        s: "loc:@conv2/biases"
      }
    }
  }
  attr {
    key: "_output_shapes"
    value {
      list {
        shape {
          dim {
            size: 64
          }
        }
      }
    }
  }
  attr {
    key: "use_locking"
    value {
      b: true
    }
  }
  attr {
    key: "validate_shape"
    value {
      b: true
    }
  }
}
node {
  name: "save/RestoreV2_14/tensor_names"
  op: "Const"
  device: "/device:CPU:0"
  attr {
    key: "_output_shapes"
    value {
      list {
        shape {
          dim {
            size: 1
          }
        }
      }
    }
  }
  attr {
    key: "dtype"
    value {
      type: DT_STRING
    }
  }
  attr {
    key: "value"
    value {
      tensor {
        dtype: DT_STRING
        tensor_shape {
          dim {
            size: 1
          }
        }
        string_val: "conv2/weights"
      }
    }
  }
}
node {
  name: "save/RestoreV2_14/shape_and_slices"
  op: "Const"
  device: "/device:CPU:0"
  attr {
    key: "_output_shapes"
    value {
      list {
        shape {
          dim {
            size: 1
          }
        }
      }
    }
  }
  attr {
    key: "dtype"
    value {
      type: DT_STRING
    }
  }
  attr {
    key: "value"
    value {
      tensor {
        dtype: DT_STRING
        tensor_shape {
          dim {
            size: 1
          }
        }
        string_val: ""
      }
    }
  }
}
node {
  name: "save/RestoreV2_14"
  op: "RestoreV2"
  input: "save/Const"
  input: "save/RestoreV2_14/tensor_names"
  input: "save/RestoreV2_14/shape_and_slices"
  device: "/device:CPU:0"
  attr {
    key: "_output_shapes"
    value {
      list {
        shape {
          unknown_rank: true
        }
      }
    }
  }
  attr {
    key: "dtypes"
    value {
      list {
        type: DT_FLOAT
      }
    }
  }
}
node {
  name: "save/Assign_14"
  op: "Assign"
  input: "conv2/weights"
  input: "save/RestoreV2_14"
  device: "/device:CPU:0"
  attr {
    key: "T"
    value {
      type: DT_FLOAT
    }
  }
  attr {
    key: "_class"
    value {
      list {
        s: "loc:@conv2/weights"
      }
    }
  }
  attr {
    key: "_output_shapes"
    value {
      list {
        shape {
          dim {
            size: 5
          }
          dim {
            size: 5
          }
          dim {
            size: 64
          }
          dim {
            size: 64
          }
        }
      }
    }
  }
  attr {
    key: "use_locking"
    value {
      b: true
    }
  }
  attr {
    key: "validate_shape"
    value {
      b: true
    }
  }
}
node {
  name: "save/RestoreV2_15/tensor_names"
  op: "Const"
  device: "/device:CPU:0"
  attr {
    key: "_output_shapes"
    value {
      list {
        shape {
          dim {
            size: 1
          }
        }
      }
    }
  }
  attr {
    key: "dtype"
    value {
      type: DT_STRING
    }
  }
  attr {
    key: "value"
    value {
      tensor {
        dtype: DT_STRING
        tensor_shape {
          dim {
            size: 1
          }
        }
        string_val: "conv2/weights/ExponentialMovingAverage"
      }
    }
  }
}
node {
  name: "save/RestoreV2_15/shape_and_slices"
  op: "Const"
  device: "/device:CPU:0"
  attr {
    key: "_output_shapes"
    value {
      list {
        shape {
          dim {
            size: 1
          }
        }
      }
    }
  }
  attr {
    key: "dtype"
    value {
      type: DT_STRING
    }
  }
  attr {
    key: "value"
    value {
      tensor {
        dtype: DT_STRING
        tensor_shape {
          dim {
            size: 1
          }
        }
        string_val: ""
      }
    }
  }
}
node {
  name: "save/RestoreV2_15"
  op: "RestoreV2"
  input: "save/Const"
  input: "save/RestoreV2_15/tensor_names"
  input: "save/RestoreV2_15/shape_and_slices"
  device: "/device:CPU:0"
  attr {
    key: "_output_shapes"
    value {
      list {
        shape {
          unknown_rank: true
        }
      }
    }
  }
  attr {
    key: "dtypes"
    value {
      list {
        type: DT_FLOAT
      }
    }
  }
}
node {
  name: "save/Assign_15"
  op: "Assign"
  input: "conv2/weights/ExponentialMovingAverage"
  input: "save/RestoreV2_15"
  device: "/device:CPU:0"
  attr {
    key: "T"
    value {
      type: DT_FLOAT
    }
  }
  attr {
    key: "_class"
    value {
      list {
        s: "loc:@conv2/weights"
      }
    }
  }
  attr {
    key: "_output_shapes"
    value {
      list {
        shape {
          dim {
            size: 5
          }
          dim {
            size: 5
          }
          dim {
            size: 64
          }
          dim {
            size: 64
          }
        }
      }
    }
  }
  attr {
    key: "use_locking"
    value {
      b: true
    }
  }
  attr {
    key: "validate_shape"
    value {
      b: true
    }
  }
}
node {
  name: "save/RestoreV2_16/tensor_names"
  op: "Const"
  device: "/device:CPU:0"
  attr {
    key: "_output_shapes"
    value {
      list {
        shape {
          dim {
            size: 1
          }
        }
      }
    }
  }
  attr {
    key: "dtype"
    value {
      type: DT_STRING
    }
  }
  attr {
    key: "value"
    value {
      tensor {
        dtype: DT_STRING
        tensor_shape {
          dim {
            size: 1
          }
        }
        string_val: "local3/biases"
      }
    }
  }
}
node {
  name: "save/RestoreV2_16/shape_and_slices"
  op: "Const"
  device: "/device:CPU:0"
  attr {
    key: "_output_shapes"
    value {
      list {
        shape {
          dim {
            size: 1
          }
        }
      }
    }
  }
  attr {
    key: "dtype"
    value {
      type: DT_STRING
    }
  }
  attr {
    key: "value"
    value {
      tensor {
        dtype: DT_STRING
        tensor_shape {
          dim {
            size: 1
          }
        }
        string_val: ""
      }
    }
  }
}
node {
  name: "save/RestoreV2_16"
  op: "RestoreV2"
  input: "save/Const"
  input: "save/RestoreV2_16/tensor_names"
  input: "save/RestoreV2_16/shape_and_slices"
  device: "/device:CPU:0"
  attr {
    key: "_output_shapes"
    value {
      list {
        shape {
          unknown_rank: true
        }
      }
    }
  }
  attr {
    key: "dtypes"
    value {
      list {
        type: DT_FLOAT
      }
    }
  }
}
node {
  name: "save/Assign_16"
  op: "Assign"
  input: "local3/biases"
  input: "save/RestoreV2_16"
  device: "/device:CPU:0"
  attr {
    key: "T"
    value {
      type: DT_FLOAT
    }
  }
  attr {
    key: "_class"
    value {
      list {
        s: "loc:@local3/biases"
      }
    }
  }
  attr {
    key: "_output_shapes"
    value {
      list {
        shape {
          dim {
            size: 384
          }
        }
      }
    }
  }
  attr {
    key: "use_locking"
    value {
      b: true
    }
  }
  attr {
    key: "validate_shape"
    value {
      b: true
    }
  }
}
node {
  name: "save/RestoreV2_17/tensor_names"
  op: "Const"
  device: "/device:CPU:0"
  attr {
    key: "_output_shapes"
    value {
      list {
        shape {
          dim {
            size: 1
          }
        }
      }
    }
  }
  attr {
    key: "dtype"
    value {
      type: DT_STRING
    }
  }
  attr {
    key: "value"
    value {
      tensor {
        dtype: DT_STRING
        tensor_shape {
          dim {
            size: 1
          }
        }
        string_val: "local3/biases/ExponentialMovingAverage"
      }
    }
  }
}
node {
  name: "save/RestoreV2_17/shape_and_slices"
  op: "Const"
  device: "/device:CPU:0"
  attr {
    key: "_output_shapes"
    value {
      list {
        shape {
          dim {
            size: 1
          }
        }
      }
    }
  }
  attr {
    key: "dtype"
    value {
      type: DT_STRING
    }
  }
  attr {
    key: "value"
    value {
      tensor {
        dtype: DT_STRING
        tensor_shape {
          dim {
            size: 1
          }
        }
        string_val: ""
      }
    }
  }
}
node {
  name: "save/RestoreV2_17"
  op: "RestoreV2"
  input: "save/Const"
  input: "save/RestoreV2_17/tensor_names"
  input: "save/RestoreV2_17/shape_and_slices"
  device: "/device:CPU:0"
  attr {
    key: "_output_shapes"
    value {
      list {
        shape {
          unknown_rank: true
        }
      }
    }
  }
  attr {
    key: "dtypes"
    value {
      list {
        type: DT_FLOAT
      }
    }
  }
}
node {
  name: "save/Assign_17"
  op: "Assign"
  input: "local3/biases/ExponentialMovingAverage"
  input: "save/RestoreV2_17"
  device: "/device:CPU:0"
  attr {
    key: "T"
    value {
      type: DT_FLOAT
    }
  }
  attr {
    key: "_class"
    value {
      list {
        s: "loc:@local3/biases"
      }
    }
  }
  attr {
    key: "_output_shapes"
    value {
      list {
        shape {
          dim {
            size: 384
          }
        }
      }
    }
  }
  attr {
    key: "use_locking"
    value {
      b: true
    }
  }
  attr {
    key: "validate_shape"
    value {
      b: true
    }
  }
}
node {
  name: "save/RestoreV2_18/tensor_names"
  op: "Const"
  device: "/device:CPU:0"
  attr {
    key: "_output_shapes"
    value {
      list {
        shape {
          dim {
            size: 1
          }
        }
      }
    }
  }
  attr {
    key: "dtype"
    value {
      type: DT_STRING
    }
  }
  attr {
    key: "value"
    value {
      tensor {
        dtype: DT_STRING
        tensor_shape {
          dim {
            size: 1
          }
        }
        string_val: "local3/weights"
      }
    }
  }
}
node {
  name: "save/RestoreV2_18/shape_and_slices"
  op: "Const"
  device: "/device:CPU:0"
  attr {
    key: "_output_shapes"
    value {
      list {
        shape {
          dim {
            size: 1
          }
        }
      }
    }
  }
  attr {
    key: "dtype"
    value {
      type: DT_STRING
    }
  }
  attr {
    key: "value"
    value {
      tensor {
        dtype: DT_STRING
        tensor_shape {
          dim {
            size: 1
          }
        }
        string_val: ""
      }
    }
  }
}
node {
  name: "save/RestoreV2_18"
  op: "RestoreV2"
  input: "save/Const"
  input: "save/RestoreV2_18/tensor_names"
  input: "save/RestoreV2_18/shape_and_slices"
  device: "/device:CPU:0"
  attr {
    key: "_output_shapes"
    value {
      list {
        shape {
          unknown_rank: true
        }
      }
    }
  }
  attr {
    key: "dtypes"
    value {
      list {
        type: DT_FLOAT
      }
    }
  }
}
node {
  name: "save/Assign_18"
  op: "Assign"
  input: "local3/weights"
  input: "save/RestoreV2_18"
  device: "/device:CPU:0"
  attr {
    key: "T"
    value {
      type: DT_FLOAT
    }
  }
  attr {
    key: "_class"
    value {
      list {
        s: "loc:@local3/weights"
      }
    }
  }
  attr {
    key: "_output_shapes"
    value {
      list {
        shape {
          dim {
            size: 4096
          }
          dim {
            size: 384
          }
        }
      }
    }
  }
  attr {
    key: "use_locking"
    value {
      b: true
    }
  }
  attr {
    key: "validate_shape"
    value {
      b: true
    }
  }
}
node {
  name: "save/RestoreV2_19/tensor_names"
  op: "Const"
  device: "/device:CPU:0"
  attr {
    key: "_output_shapes"
    value {
      list {
        shape {
          dim {
            size: 1
          }
        }
      }
    }
  }
  attr {
    key: "dtype"
    value {
      type: DT_STRING
    }
  }
  attr {
    key: "value"
    value {
      tensor {
        dtype: DT_STRING
        tensor_shape {
          dim {
            size: 1
          }
        }
        string_val: "local3/weights/ExponentialMovingAverage"
      }
    }
  }
}
node {
  name: "save/RestoreV2_19/shape_and_slices"
  op: "Const"
  device: "/device:CPU:0"
  attr {
    key: "_output_shapes"
    value {
      list {
        shape {
          dim {
            size: 1
          }
        }
      }
    }
  }
  attr {
    key: "dtype"
    value {
      type: DT_STRING
    }
  }
  attr {
    key: "value"
    value {
      tensor {
        dtype: DT_STRING
        tensor_shape {
          dim {
            size: 1
          }
        }
        string_val: ""
      }
    }
  }
}
node {
  name: "save/RestoreV2_19"
  op: "RestoreV2"
  input: "save/Const"
  input: "save/RestoreV2_19/tensor_names"
  input: "save/RestoreV2_19/shape_and_slices"
  device: "/device:CPU:0"
  attr {
    key: "_output_shapes"
    value {
      list {
        shape {
          unknown_rank: true
        }
      }
    }
  }
  attr {
    key: "dtypes"
    value {
      list {
        type: DT_FLOAT
      }
    }
  }
}
node {
  name: "save/Assign_19"
  op: "Assign"
  input: "local3/weights/ExponentialMovingAverage"
  input: "save/RestoreV2_19"
  device: "/device:CPU:0"
  attr {
    key: "T"
    value {
      type: DT_FLOAT
    }
  }
  attr {
    key: "_class"
    value {
      list {
        s: "loc:@local3/weights"
      }
    }
  }
  attr {
    key: "_output_shapes"
    value {
      list {
        shape {
          dim {
            size: 4096
          }
          dim {
            size: 384
          }
        }
      }
    }
  }
  attr {
    key: "use_locking"
    value {
      b: true
    }
  }
  attr {
    key: "validate_shape"
    value {
      b: true
    }
  }
}
node {
  name: "save/RestoreV2_20/tensor_names"
  op: "Const"
  device: "/device:CPU:0"
  attr {
    key: "_output_shapes"
    value {
      list {
        shape {
          dim {
            size: 1
          }
        }
      }
    }
  }
  attr {
    key: "dtype"
    value {
      type: DT_STRING
    }
  }
  attr {
    key: "value"
    value {
      tensor {
        dtype: DT_STRING
        tensor_shape {
          dim {
            size: 1
          }
        }
        string_val: "local4/biases"
      }
    }
  }
}
node {
  name: "save/RestoreV2_20/shape_and_slices"
  op: "Const"
  device: "/device:CPU:0"
  attr {
    key: "_output_shapes"
    value {
      list {
        shape {
          dim {
            size: 1
          }
        }
      }
    }
  }
  attr {
    key: "dtype"
    value {
      type: DT_STRING
    }
  }
  attr {
    key: "value"
    value {
      tensor {
        dtype: DT_STRING
        tensor_shape {
          dim {
            size: 1
          }
        }
        string_val: ""
      }
    }
  }
}
node {
  name: "save/RestoreV2_20"
  op: "RestoreV2"
  input: "save/Const"
  input: "save/RestoreV2_20/tensor_names"
  input: "save/RestoreV2_20/shape_and_slices"
  device: "/device:CPU:0"
  attr {
    key: "_output_shapes"
    value {
      list {
        shape {
          unknown_rank: true
        }
      }
    }
  }
  attr {
    key: "dtypes"
    value {
      list {
        type: DT_FLOAT
      }
    }
  }
}
node {
  name: "save/Assign_20"
  op: "Assign"
  input: "local4/biases"
  input: "save/RestoreV2_20"
  device: "/device:CPU:0"
  attr {
    key: "T"
    value {
      type: DT_FLOAT
    }
  }
  attr {
    key: "_class"
    value {
      list {
        s: "loc:@local4/biases"
      }
    }
  }
  attr {
    key: "_output_shapes"
    value {
      list {
        shape {
          dim {
            size: 192
          }
        }
      }
    }
  }
  attr {
    key: "use_locking"
    value {
      b: true
    }
  }
  attr {
    key: "validate_shape"
    value {
      b: true
    }
  }
}
node {
  name: "save/RestoreV2_21/tensor_names"
  op: "Const"
  device: "/device:CPU:0"
  attr {
    key: "_output_shapes"
    value {
      list {
        shape {
          dim {
            size: 1
          }
        }
      }
    }
  }
  attr {
    key: "dtype"
    value {
      type: DT_STRING
    }
  }
  attr {
    key: "value"
    value {
      tensor {
        dtype: DT_STRING
        tensor_shape {
          dim {
            size: 1
          }
        }
        string_val: "local4/biases/ExponentialMovingAverage"
      }
    }
  }
}
node {
  name: "save/RestoreV2_21/shape_and_slices"
  op: "Const"
  device: "/device:CPU:0"
  attr {
    key: "_output_shapes"
    value {
      list {
        shape {
          dim {
            size: 1
          }
        }
      }
    }
  }
  attr {
    key: "dtype"
    value {
      type: DT_STRING
    }
  }
  attr {
    key: "value"
    value {
      tensor {
        dtype: DT_STRING
        tensor_shape {
          dim {
            size: 1
          }
        }
        string_val: ""
      }
    }
  }
}
node {
  name: "save/RestoreV2_21"
  op: "RestoreV2"
  input: "save/Const"
  input: "save/RestoreV2_21/tensor_names"
  input: "save/RestoreV2_21/shape_and_slices"
  device: "/device:CPU:0"
  attr {
    key: "_output_shapes"
    value {
      list {
        shape {
          unknown_rank: true
        }
      }
    }
  }
  attr {
    key: "dtypes"
    value {
      list {
        type: DT_FLOAT
      }
    }
  }
}
node {
  name: "save/Assign_21"
  op: "Assign"
  input: "local4/biases/ExponentialMovingAverage"
  input: "save/RestoreV2_21"
  device: "/device:CPU:0"
  attr {
    key: "T"
    value {
      type: DT_FLOAT
    }
  }
  attr {
    key: "_class"
    value {
      list {
        s: "loc:@local4/biases"
      }
    }
  }
  attr {
    key: "_output_shapes"
    value {
      list {
        shape {
          dim {
            size: 192
          }
        }
      }
    }
  }
  attr {
    key: "use_locking"
    value {
      b: true
    }
  }
  attr {
    key: "validate_shape"
    value {
      b: true
    }
  }
}
node {
  name: "save/RestoreV2_22/tensor_names"
  op: "Const"
  device: "/device:CPU:0"
  attr {
    key: "_output_shapes"
    value {
      list {
        shape {
          dim {
            size: 1
          }
        }
      }
    }
  }
  attr {
    key: "dtype"
    value {
      type: DT_STRING
    }
  }
  attr {
    key: "value"
    value {
      tensor {
        dtype: DT_STRING
        tensor_shape {
          dim {
            size: 1
          }
        }
        string_val: "local4/weights"
      }
    }
  }
}
node {
  name: "save/RestoreV2_22/shape_and_slices"
  op: "Const"
  device: "/device:CPU:0"
  attr {
    key: "_output_shapes"
    value {
      list {
        shape {
          dim {
            size: 1
          }
        }
      }
    }
  }
  attr {
    key: "dtype"
    value {
      type: DT_STRING
    }
  }
  attr {
    key: "value"
    value {
      tensor {
        dtype: DT_STRING
        tensor_shape {
          dim {
            size: 1
          }
        }
        string_val: ""
      }
    }
  }
}
node {
  name: "save/RestoreV2_22"
  op: "RestoreV2"
  input: "save/Const"
  input: "save/RestoreV2_22/tensor_names"
  input: "save/RestoreV2_22/shape_and_slices"
  device: "/device:CPU:0"
  attr {
    key: "_output_shapes"
    value {
      list {
        shape {
          unknown_rank: true
        }
      }
    }
  }
  attr {
    key: "dtypes"
    value {
      list {
        type: DT_FLOAT
      }
    }
  }
}
node {
  name: "save/Assign_22"
  op: "Assign"
  input: "local4/weights"
  input: "save/RestoreV2_22"
  device: "/device:CPU:0"
  attr {
    key: "T"
    value {
      type: DT_FLOAT
    }
  }
  attr {
    key: "_class"
    value {
      list {
        s: "loc:@local4/weights"
      }
    }
  }
  attr {
    key: "_output_shapes"
    value {
      list {
        shape {
          dim {
            size: 384
          }
          dim {
            size: 192
          }
        }
      }
    }
  }
  attr {
    key: "use_locking"
    value {
      b: true
    }
  }
  attr {
    key: "validate_shape"
    value {
      b: true
    }
  }
}
node {
  name: "save/RestoreV2_23/tensor_names"
  op: "Const"
  device: "/device:CPU:0"
  attr {
    key: "_output_shapes"
    value {
      list {
        shape {
          dim {
            size: 1
          }
        }
      }
    }
  }
  attr {
    key: "dtype"
    value {
      type: DT_STRING
    }
  }
  attr {
    key: "value"
    value {
      tensor {
        dtype: DT_STRING
        tensor_shape {
          dim {
            size: 1
          }
        }
        string_val: "local4/weights/ExponentialMovingAverage"
      }
    }
  }
}
node {
  name: "save/RestoreV2_23/shape_and_slices"
  op: "Const"
  device: "/device:CPU:0"
  attr {
    key: "_output_shapes"
    value {
      list {
        shape {
          dim {
            size: 1
          }
        }
      }
    }
  }
  attr {
    key: "dtype"
    value {
      type: DT_STRING
    }
  }
  attr {
    key: "value"
    value {
      tensor {
        dtype: DT_STRING
        tensor_shape {
          dim {
            size: 1
          }
        }
        string_val: ""
      }
    }
  }
}
node {
  name: "save/RestoreV2_23"
  op: "RestoreV2"
  input: "save/Const"
  input: "save/RestoreV2_23/tensor_names"
  input: "save/RestoreV2_23/shape_and_slices"
  device: "/device:CPU:0"
  attr {
    key: "_output_shapes"
    value {
      list {
        shape {
          unknown_rank: true
        }
      }
    }
  }
  attr {
    key: "dtypes"
    value {
      list {
        type: DT_FLOAT
      }
    }
  }
}
node {
  name: "save/Assign_23"
  op: "Assign"
  input: "local4/weights/ExponentialMovingAverage"
  input: "save/RestoreV2_23"
  device: "/device:CPU:0"
  attr {
    key: "T"
    value {
      type: DT_FLOAT
    }
  }
  attr {
    key: "_class"
    value {
      list {
        s: "loc:@local4/weights"
      }
    }
  }
  attr {
    key: "_output_shapes"
    value {
      list {
        shape {
          dim {
            size: 384
          }
          dim {
            size: 192
          }
        }
      }
    }
  }
  attr {
    key: "use_locking"
    value {
      b: true
    }
  }
  attr {
    key: "validate_shape"
    value {
      b: true
    }
  }
}
node {
  name: "save/RestoreV2_24/tensor_names"
  op: "Const"
  device: "/device:CPU:0"
  attr {
    key: "_output_shapes"
    value {
      list {
        shape {
          dim {
            size: 1
          }
        }
      }
    }
  }
  attr {
    key: "dtype"
    value {
      type: DT_STRING
    }
  }
  attr {
    key: "value"
    value {
      tensor {
        dtype: DT_STRING
        tensor_shape {
          dim {
            size: 1
          }
        }
        string_val: "softmax_linear/biases"
      }
    }
  }
}
node {
  name: "save/RestoreV2_24/shape_and_slices"
  op: "Const"
  device: "/device:CPU:0"
  attr {
    key: "_output_shapes"
    value {
      list {
        shape {
          dim {
            size: 1
          }
        }
      }
    }
  }
  attr {
    key: "dtype"
    value {
      type: DT_STRING
    }
  }
  attr {
    key: "value"
    value {
      tensor {
        dtype: DT_STRING
        tensor_shape {
          dim {
            size: 1
          }
        }
        string_val: ""
      }
    }
  }
}
node {
  name: "save/RestoreV2_24"
  op: "RestoreV2"
  input: "save/Const"
  input: "save/RestoreV2_24/tensor_names"
  input: "save/RestoreV2_24/shape_and_slices"
  device: "/device:CPU:0"
  attr {
    key: "_output_shapes"
    value {
      list {
        shape {
          unknown_rank: true
        }
      }
    }
  }
  attr {
    key: "dtypes"
    value {
      list {
        type: DT_FLOAT
      }
    }
  }
}
node {
  name: "save/Assign_24"
  op: "Assign"
  input: "softmax_linear/biases"
  input: "save/RestoreV2_24"
  device: "/device:CPU:0"
  attr {
    key: "T"
    value {
      type: DT_FLOAT
    }
  }
  attr {
    key: "_class"
    value {
      list {
        s: "loc:@softmax_linear/biases"
      }
    }
  }
  attr {
    key: "_output_shapes"
    value {
      list {
        shape {
          dim {
            size: 6
          }
        }
      }
    }
  }
  attr {
    key: "use_locking"
    value {
      b: true
    }
  }
  attr {
    key: "validate_shape"
    value {
      b: true
    }
  }
}
node {
  name: "save/RestoreV2_25/tensor_names"
  op: "Const"
  device: "/device:CPU:0"
  attr {
    key: "_output_shapes"
    value {
      list {
        shape {
          dim {
            size: 1
          }
        }
      }
    }
  }
  attr {
    key: "dtype"
    value {
      type: DT_STRING
    }
  }
  attr {
    key: "value"
    value {
      tensor {
        dtype: DT_STRING
        tensor_shape {
          dim {
            size: 1
          }
        }
        string_val: "softmax_linear/biases/ExponentialMovingAverage"
      }
    }
  }
}
node {
  name: "save/RestoreV2_25/shape_and_slices"
  op: "Const"
  device: "/device:CPU:0"
  attr {
    key: "_output_shapes"
    value {
      list {
        shape {
          dim {
            size: 1
          }
        }
      }
    }
  }
  attr {
    key: "dtype"
    value {
      type: DT_STRING
    }
  }
  attr {
    key: "value"
    value {
      tensor {
        dtype: DT_STRING
        tensor_shape {
          dim {
            size: 1
          }
        }
        string_val: ""
      }
    }
  }
}
node {
  name: "save/RestoreV2_25"
  op: "RestoreV2"
  input: "save/Const"
  input: "save/RestoreV2_25/tensor_names"
  input: "save/RestoreV2_25/shape_and_slices"
  device: "/device:CPU:0"
  attr {
    key: "_output_shapes"
    value {
      list {
        shape {
          unknown_rank: true
        }
      }
    }
  }
  attr {
    key: "dtypes"
    value {
      list {
        type: DT_FLOAT
      }
    }
  }
}
node {
  name: "save/Assign_25"
  op: "Assign"
  input: "softmax_linear/biases/ExponentialMovingAverage"
  input: "save/RestoreV2_25"
  device: "/device:CPU:0"
  attr {
    key: "T"
    value {
      type: DT_FLOAT
    }
  }
  attr {
    key: "_class"
    value {
      list {
        s: "loc:@softmax_linear/biases"
      }
    }
  }
  attr {
    key: "_output_shapes"
    value {
      list {
        shape {
          dim {
            size: 6
          }
        }
      }
    }
  }
  attr {
    key: "use_locking"
    value {
      b: true
    }
  }
  attr {
    key: "validate_shape"
    value {
      b: true
    }
  }
}
node {
  name: "save/RestoreV2_26/tensor_names"
  op: "Const"
  device: "/device:CPU:0"
  attr {
    key: "_output_shapes"
    value {
      list {
        shape {
          dim {
            size: 1
          }
        }
      }
    }
  }
  attr {
    key: "dtype"
    value {
      type: DT_STRING
    }
  }
  attr {
    key: "value"
    value {
      tensor {
        dtype: DT_STRING
        tensor_shape {
          dim {
            size: 1
          }
        }
        string_val: "softmax_linear/weights"
      }
    }
  }
}
node {
  name: "save/RestoreV2_26/shape_and_slices"
  op: "Const"
  device: "/device:CPU:0"
  attr {
    key: "_output_shapes"
    value {
      list {
        shape {
          dim {
            size: 1
          }
        }
      }
    }
  }
  attr {
    key: "dtype"
    value {
      type: DT_STRING
    }
  }
  attr {
    key: "value"
    value {
      tensor {
        dtype: DT_STRING
        tensor_shape {
          dim {
            size: 1
          }
        }
        string_val: ""
      }
    }
  }
}
node {
  name: "save/RestoreV2_26"
  op: "RestoreV2"
  input: "save/Const"
  input: "save/RestoreV2_26/tensor_names"
  input: "save/RestoreV2_26/shape_and_slices"
  device: "/device:CPU:0"
  attr {
    key: "_output_shapes"
    value {
      list {
        shape {
          unknown_rank: true
        }
      }
    }
  }
  attr {
    key: "dtypes"
    value {
      list {
        type: DT_FLOAT
      }
    }
  }
}
node {
  name: "save/Assign_26"
  op: "Assign"
  input: "softmax_linear/weights"
  input: "save/RestoreV2_26"
  device: "/device:CPU:0"
  attr {
    key: "T"
    value {
      type: DT_FLOAT
    }
  }
  attr {
    key: "_class"
    value {
      list {
        s: "loc:@softmax_linear/weights"
      }
    }
  }
  attr {
    key: "_output_shapes"
    value {
      list {
        shape {
          dim {
            size: 192
          }
          dim {
            size: 6
          }
        }
      }
    }
  }
  attr {
    key: "use_locking"
    value {
      b: true
    }
  }
  attr {
    key: "validate_shape"
    value {
      b: true
    }
  }
}
node {
  name: "save/RestoreV2_27/tensor_names"
  op: "Const"
  device: "/device:CPU:0"
  attr {
    key: "_output_shapes"
    value {
      list {
        shape {
          dim {
            size: 1
          }
        }
      }
    }
  }
  attr {
    key: "dtype"
    value {
      type: DT_STRING
    }
  }
  attr {
    key: "value"
    value {
      tensor {
        dtype: DT_STRING
        tensor_shape {
          dim {
            size: 1
          }
        }
        string_val: "softmax_linear/weights/ExponentialMovingAverage"
      }
    }
  }
}
node {
  name: "save/RestoreV2_27/shape_and_slices"
  op: "Const"
  device: "/device:CPU:0"
  attr {
    key: "_output_shapes"
    value {
      list {
        shape {
          dim {
            size: 1
          }
        }
      }
    }
  }
  attr {
    key: "dtype"
    value {
      type: DT_STRING
    }
  }
  attr {
    key: "value"
    value {
      tensor {
        dtype: DT_STRING
        tensor_shape {
          dim {
            size: 1
          }
        }
        string_val: ""
      }
    }
  }
}
node {
  name: "save/RestoreV2_27"
  op: "RestoreV2"
  input: "save/Const"
  input: "save/RestoreV2_27/tensor_names"
  input: "save/RestoreV2_27/shape_and_slices"
  device: "/device:CPU:0"
  attr {
    key: "_output_shapes"
    value {
      list {
        shape {
          unknown_rank: true
        }
      }
    }
  }
  attr {
    key: "dtypes"
    value {
      list {
        type: DT_FLOAT
      }
    }
  }
}
node {
  name: "save/Assign_27"
  op: "Assign"
  input: "softmax_linear/weights/ExponentialMovingAverage"
  input: "save/RestoreV2_27"
  device: "/device:CPU:0"
  attr {
    key: "T"
    value {
      type: DT_FLOAT
    }
  }
  attr {
    key: "_class"
    value {
      list {
        s: "loc:@softmax_linear/weights"
      }
    }
  }
  attr {
    key: "_output_shapes"
    value {
      list {
        shape {
          dim {
            size: 192
          }
          dim {
            size: 6
          }
        }
      }
    }
  }
  attr {
    key: "use_locking"
    value {
      b: true
    }
  }
  attr {
    key: "validate_shape"
    value {
      b: true
    }
  }
}
node {
  name: "save/restore_shard_1"
  op: "NoOp"
  input: "^save/Assign_8"
  input: "^save/Assign_9"
  input: "^save/Assign_10"
  input: "^save/Assign_11"
  input: "^save/Assign_12"
  input: "^save/Assign_13"
  input: "^save/Assign_14"
  input: "^save/Assign_15"
  input: "^save/Assign_16"
  input: "^save/Assign_17"
  input: "^save/Assign_18"
  input: "^save/Assign_19"
  input: "^save/Assign_20"
  input: "^save/Assign_21"
  input: "^save/Assign_22"
  input: "^save/Assign_23"
  input: "^save/Assign_24"
  input: "^save/Assign_25"
  input: "^save/Assign_26"
  input: "^save/Assign_27"
  device: "/device:CPU:0"
}
node {
  name: "save/restore_all/NoOp"
  op: "NoOp"
  input: "^save/restore_shard"
}
node {
  name: "save/restore_all/NoOp_1"
  op: "NoOp"
  input: "^save/restore_shard_1"
  device: "/device:CPU:0"
}
node {
  name: "save/restore_all"
  op: "NoOp"
  input: "^save/restore_all/NoOp"
  input: "^save/restore_all/NoOp_1"
}
versions {
  producer: 22
}
